{"format": "graph-model", "generatedBy": "2.19.0", "convertedBy": "TensorFlow.js Converter v4.22.0", "signature": {"inputs": {"input_layer": {"name": "input_layer:0", "dtype": "DT_FLOAT", "tensorShape": {"dim": [{"size": "-1"}, {"size": "128"}, {"size": "128"}, {"size": "3"}]}}}, "outputs": {"output_0": {"name": "Identity:0", "dtype": "DT_FLOAT", "tensorShape": {"dim": [{"size": "-1"}, {"size": "128"}, {"size": "128"}, {"size": "1"}]}}}}, "modelTopology": {"node": [{"name": "StatefulPartitionedCall/U-Net_1/conv2d_transpose_3_1/strided_slice/stack", "op": "Const", "attr": {"value": {"tensor": {"dtype": "DT_INT32", "tensorShape": {"dim": [{"size": "1"}]}}}, "dtype": {"type": "DT_INT32"}}}, {"name": "StatefulPartitionedCall/U-Net_1/conv2d_transpose_3_1/strided_slice/stack_1", "op": "Const", "attr": {"value": {"tensor": {"dtype": "DT_INT32", "tensorShape": {"dim": [{"size": "1"}]}}}, "dtype": {"type": "DT_INT32"}}}, {"name": "StatefulPartitionedCall/U-Net_1/conv2d_transpose_3_1/strided_slice/stack_2", "op": "Const", "attr": {"value": {"tensor": {"dtype": "DT_INT32", "tensorShape": {"dim": [{"size": "1"}]}}}, "dtype": {"type": "DT_INT32"}}}, {"name": "StatefulPartitionedCall/U-Net_1/conv2d_transpose_3_1/conv_transpose/input_sizes/1", "op": "Const", "attr": {"value": {"tensor": {"dtype": "DT_INT32", "tensorShape": {}}}, "dtype": {"type": "DT_INT32"}}}, {"name": "StatefulPartitionedCall/U-Net_1/conv2d_transpose_3_1/conv_transpose/input_sizes/2", "op": "Const", "attr": {"value": {"tensor": {"dtype": "DT_INT32", "tensorShape": {}}}, "dtype": {"type": "DT_INT32"}}}, {"name": "StatefulPartitionedCall/U-Net_1/conv2d_transpose_3_1/conv_transpose/input_sizes/3", "op": "Const", "attr": {"value": {"tensor": {"dtype": "DT_INT32", "tensorShape": {}}}, "dtype": {"type": "DT_INT32"}}}, {"name": "StatefulPartitionedCall/U-Net_1/conv2d_transpose_3_1/conv_transpose/ReadVariableOp", "op": "Const", "attr": {"value": {"tensor": {"dtype": "DT_FLOAT", "tensorShape": {"dim": [{"size": "2"}, {"size": "2"}, {"size": "32"}, {"size": "64"}]}}}, "dtype": {"type": "DT_FLOAT"}}}, {"name": "StatefulPartitionedCall/U-Net_1/conv2d_transpose_2_1/strided_slice/stack", "op": "Const", "attr": {"value": {"tensor": {"dtype": "DT_INT32", "tensorShape": {"dim": [{"size": "1"}]}}}, "dtype": {"type": "DT_INT32"}}}, {"name": "StatefulPartitionedCall/U-Net_1/conv2d_transpose_2_1/strided_slice/stack_1", "op": "Const", "attr": {"value": {"tensor": {"dtype": "DT_INT32", "tensorShape": {"dim": [{"size": "1"}]}}}, "dtype": {"type": "DT_INT32"}}}, {"name": "StatefulPartitionedCall/U-Net_1/conv2d_transpose_2_1/strided_slice/stack_2", "op": "Const", "attr": {"value": {"tensor": {"dtype": "DT_INT32", "tensorShape": {"dim": [{"size": "1"}]}}}, "dtype": {"type": "DT_INT32"}}}, {"name": "StatefulPartitionedCall/U-Net_1/conv2d_transpose_2_1/conv_transpose/input_sizes/1", "op": "Const", "attr": {"value": {"tensor": {"dtype": "DT_INT32", "tensorShape": {}}}, "dtype": {"type": "DT_INT32"}}}, {"name": "StatefulPartitionedCall/U-Net_1/conv2d_transpose_2_1/conv_transpose/input_sizes/2", "op": "Const", "attr": {"value": {"tensor": {"dtype": "DT_INT32", "tensorShape": {}}}, "dtype": {"type": "DT_INT32"}}}, {"name": "StatefulPartitionedCall/U-Net_1/conv2d_transpose_2_1/conv_transpose/input_sizes/3", "op": "Const", "attr": {"value": {"tensor": {"dtype": "DT_INT32", "tensorShape": {}}}, "dtype": {"type": "DT_INT32"}}}, {"name": "StatefulPartitionedCall/U-Net_1/conv2d_transpose_2_1/conv_transpose/ReadVariableOp", "op": "Const", "attr": {"value": {"tensor": {"dtype": "DT_FLOAT", "tensorShape": {"dim": [{"size": "2"}, {"size": "2"}, {"size": "64"}, {"size": "128"}]}}}, "dtype": {"type": "DT_FLOAT"}}}, {"name": "StatefulPartitionedCall/U-Net_1/conv2d_transpose_1_2/strided_slice/stack", "op": "Const", "attr": {"value": {"tensor": {"dtype": "DT_INT32", "tensorShape": {"dim": [{"size": "1"}]}}}, "dtype": {"type": "DT_INT32"}}}, {"name": "StatefulPartitionedCall/U-Net_1/conv2d_transpose_1_2/strided_slice/stack_1", "op": "Const", "attr": {"value": {"tensor": {"dtype": "DT_INT32", "tensorShape": {"dim": [{"size": "1"}]}}}, "dtype": {"type": "DT_INT32"}}}, {"name": "StatefulPartitionedCall/U-Net_1/conv2d_transpose_1_2/strided_slice/stack_2", "op": "Const", "attr": {"value": {"tensor": {"dtype": "DT_INT32", "tensorShape": {"dim": [{"size": "1"}]}}}, "dtype": {"type": "DT_INT32"}}}, {"name": "StatefulPartitionedCall/U-Net_1/conv2d_transpose_1_2/conv_transpose/input_sizes/1", "op": "Const", "attr": {"value": {"tensor": {"dtype": "DT_INT32", "tensorShape": {}}}, "dtype": {"type": "DT_INT32"}}}, {"name": "StatefulPartitionedCall/U-Net_1/conv2d_transpose_1_2/conv_transpose/input_sizes/2", "op": "Const", "attr": {"value": {"tensor": {"dtype": "DT_INT32", "tensorShape": {}}}, "dtype": {"type": "DT_INT32"}}}, {"name": "StatefulPartitionedCall/U-Net_1/conv2d_transpose_1_2/conv_transpose/input_sizes/3", "op": "Const", "attr": {"value": {"tensor": {"dtype": "DT_INT32", "tensorShape": {}}}, "dtype": {"type": "DT_INT32"}}}, {"name": "StatefulPartitionedCall/U-Net_1/conv2d_transpose_1_2/conv_transpose/ReadVariableOp", "op": "Const", "attr": {"value": {"tensor": {"dtype": "DT_FLOAT", "tensorShape": {"dim": [{"size": "2"}, {"size": "2"}, {"size": "128"}, {"size": "256"}]}}}, "dtype": {"type": "DT_FLOAT"}}}, {"name": "StatefulPartitionedCall/U-Net_1/conv2d_transpose_1/strided_slice/stack", "op": "Const", "attr": {"value": {"tensor": {"dtype": "DT_INT32", "tensorShape": {"dim": [{"size": "1"}]}}}, "dtype": {"type": "DT_INT32"}}}, {"name": "StatefulPartitionedCall/U-Net_1/conv2d_transpose_1/strided_slice/stack_1", "op": "Const", "attr": {"value": {"tensor": {"dtype": "DT_INT32", "tensorShape": {"dim": [{"size": "1"}]}}}, "dtype": {"type": "DT_INT32"}}}, {"name": "StatefulPartitionedCall/U-Net_1/conv2d_transpose_1/strided_slice/stack_2", "op": "Const", "attr": {"value": {"tensor": {"dtype": "DT_INT32", "tensorShape": {"dim": [{"size": "1"}]}}}, "dtype": {"type": "DT_INT32"}}}, {"name": "StatefulPartitionedCall/U-Net_1/conv2d_transpose_1/conv_transpose/input_sizes/1", "op": "Const", "attr": {"value": {"tensor": {"dtype": "DT_INT32", "tensorShape": {}}}, "dtype": {"type": "DT_INT32"}}}, {"name": "StatefulPartitionedCall/U-Net_1/conv2d_transpose_1/conv_transpose/input_sizes/2", "op": "Const", "attr": {"value": {"tensor": {"dtype": "DT_INT32", "tensorShape": {}}}, "dtype": {"type": "DT_INT32"}}}, {"name": "StatefulPartitionedCall/U-Net_1/conv2d_transpose_1/conv_transpose/input_sizes/3", "op": "Const", "attr": {"value": {"tensor": {"dtype": "DT_INT32", "tensorShape": {}}}, "dtype": {"type": "DT_INT32"}}}, {"name": "StatefulPartitionedCall/U-Net_1/conv2d_transpose_1/conv_transpose/ReadVariableOp", "op": "Const", "attr": {"value": {"tensor": {"dtype": "DT_FLOAT", "tensorShape": {"dim": [{"size": "2"}, {"size": "2"}, {"size": "256"}, {"size": "512"}]}}}, "dtype": {"type": "DT_FLOAT"}}}, {"name": "StatefulPartitionedCall/U-Net_1/conv2d_8_1/convolution/ReadVariableOp", "op": "Const", "attr": {"value": {"tensor": {"dtype": "DT_FLOAT", "tensorShape": {"dim": [{"size": "3"}, {"size": "3"}, {"size": "256"}, {"size": "512"}]}}}, "dtype": {"type": "DT_FLOAT"}}}, {"name": "StatefulPartitionedCall/U-Net_1/conv2d_8_1/Squeeze", "op": "Const", "attr": {"value": {"tensor": {"dtype": "DT_FLOAT", "tensorShape": {"dim": [{"size": "512"}]}}}, "dtype": {"type": "DT_FLOAT"}}}, {"name": "StatefulPartitionedCall/U-Net_1/batch_normalization_8_1/batchnorm/mul", "op": "Const", "attr": {"value": {"tensor": {"dtype": "DT_FLOAT", "tensorShape": {"dim": [{"size": "512"}]}}}, "dtype": {"type": "DT_FLOAT"}}}, {"name": "StatefulPartitionedCall/U-Net_1/batch_normalization_8_1/batchnorm/sub", "op": "Const", "attr": {"value": {"tensor": {"dtype": "DT_FLOAT", "tensorShape": {"dim": [{"size": "512"}]}}}, "dtype": {"type": "DT_FLOAT"}}}, {"name": "StatefulPartitionedCall/U-Net_1/conv2d_9_1/convolution/ReadVariableOp", "op": "Const", "attr": {"value": {"tensor": {"dtype": "DT_FLOAT", "tensorShape": {"dim": [{"size": "3"}, {"size": "3"}, {"size": "512"}, {"size": "512"}]}}}, "dtype": {"type": "DT_FLOAT"}}}, {"name": "StatefulPartitionedCall/U-Net_1/conv2d_9_1/Squeeze", "op": "Const", "attr": {"value": {"tensor": {"dtype": "DT_FLOAT", "tensorShape": {"dim": [{"size": "512"}]}}}, "dtype": {"type": "DT_FLOAT"}}}, {"name": "StatefulPartitionedCall/U-Net_1/batch_normalization_9_1/batchnorm/mul", "op": "Const", "attr": {"value": {"tensor": {"dtype": "DT_FLOAT", "tensorShape": {"dim": [{"size": "512"}]}}}, "dtype": {"type": "DT_FLOAT"}}}, {"name": "StatefulPartitionedCall/U-Net_1/batch_normalization_9_1/batchnorm/sub", "op": "Const", "attr": {"value": {"tensor": {"dtype": "DT_FLOAT", "tensorShape": {"dim": [{"size": "512"}]}}}, "dtype": {"type": "DT_FLOAT"}}}, {"name": "StatefulPartitionedCall/U-Net_1/conv2d_transpose_1/Squeeze", "op": "Const", "attr": {"value": {"tensor": {"dtype": "DT_FLOAT", "tensorShape": {"dim": [{"size": "256"}]}}}, "dtype": {"type": "DT_FLOAT"}}}, {"name": "StatefulPartitionedCall/U-Net_1/conv2d_6_1/convolution/ReadVariableOp", "op": "Const", "attr": {"value": {"tensor": {"dtype": "DT_FLOAT", "tensorShape": {"dim": [{"size": "3"}, {"size": "3"}, {"size": "128"}, {"size": "256"}]}}}, "dtype": {"type": "DT_FLOAT"}}}, {"name": "StatefulPartitionedCall/U-Net_1/conv2d_6_1/Squeeze", "op": "Const", "attr": {"value": {"tensor": {"dtype": "DT_FLOAT", "tensorShape": {"dim": [{"size": "256"}]}}}, "dtype": {"type": "DT_FLOAT"}}}, {"name": "StatefulPartitionedCall/U-Net_1/batch_normalization_6_1/batchnorm/mul", "op": "Const", "attr": {"value": {"tensor": {"dtype": "DT_FLOAT", "tensorShape": {"dim": [{"size": "256"}]}}}, "dtype": {"type": "DT_FLOAT"}}}, {"name": "StatefulPartitionedCall/U-Net_1/batch_normalization_6_1/batchnorm/sub", "op": "Const", "attr": {"value": {"tensor": {"dtype": "DT_FLOAT", "tensorShape": {"dim": [{"size": "256"}]}}}, "dtype": {"type": "DT_FLOAT"}}}, {"name": "StatefulPartitionedCall/U-Net_1/conv2d_7_1/convolution/ReadVariableOp", "op": "Const", "attr": {"value": {"tensor": {"dtype": "DT_FLOAT", "tensorShape": {"dim": [{"size": "3"}, {"size": "3"}, {"size": "256"}, {"size": "256"}]}}}, "dtype": {"type": "DT_FLOAT"}}}, {"name": "StatefulPartitionedCall/U-Net_1/conv2d_7_1/Squeeze", "op": "Const", "attr": {"value": {"tensor": {"dtype": "DT_FLOAT", "tensorShape": {"dim": [{"size": "256"}]}}}, "dtype": {"type": "DT_FLOAT"}}}, {"name": "StatefulPartitionedCall/U-Net_1/batch_normalization_7_1/batchnorm/mul", "op": "Const", "attr": {"value": {"tensor": {"dtype": "DT_FLOAT", "tensorShape": {"dim": [{"size": "256"}]}}}, "dtype": {"type": "DT_FLOAT"}}}, {"name": "StatefulPartitionedCall/U-Net_1/batch_normalization_7_1/batchnorm/sub", "op": "Const", "attr": {"value": {"tensor": {"dtype": "DT_FLOAT", "tensorShape": {"dim": [{"size": "256"}]}}}, "dtype": {"type": "DT_FLOAT"}}}, {"name": "StatefulPartitionedCall/U-Net_1/concatenate_1/concat/axis", "op": "Const", "attr": {"value": {"tensor": {"dtype": "DT_INT32", "tensorShape": {}}}, "dtype": {"type": "DT_INT32"}}}, {"name": "StatefulPartitionedCall/U-Net_1/conv2d_10_1/convolution/ReadVariableOp", "op": "Const", "attr": {"value": {"tensor": {"dtype": "DT_FLOAT", "tensorShape": {"dim": [{"size": "3"}, {"size": "3"}, {"size": "512"}, {"size": "256"}]}}}, "dtype": {"type": "DT_FLOAT"}}}, {"name": "StatefulPartitionedCall/U-Net_1/conv2d_10_1/Squeeze", "op": "Const", "attr": {"value": {"tensor": {"dtype": "DT_FLOAT", "tensorShape": {"dim": [{"size": "256"}]}}}, "dtype": {"type": "DT_FLOAT"}}}, {"name": "StatefulPartitionedCall/U-Net_1/batch_normalization_10_1/batchnorm/mul", "op": "Const", "attr": {"value": {"tensor": {"dtype": "DT_FLOAT", "tensorShape": {"dim": [{"size": "256"}]}}}, "dtype": {"type": "DT_FLOAT"}}}, {"name": "StatefulPartitionedCall/U-Net_1/batch_normalization_10_1/batchnorm/sub", "op": "Const", "attr": {"value": {"tensor": {"dtype": "DT_FLOAT", "tensorShape": {"dim": [{"size": "256"}]}}}, "dtype": {"type": "DT_FLOAT"}}}, {"name": "StatefulPartitionedCall/U-Net_1/conv2d_11_1/convolution/ReadVariableOp", "op": "Const", "attr": {"value": {"tensor": {"dtype": "DT_FLOAT", "tensorShape": {"dim": [{"size": "3"}, {"size": "3"}, {"size": "256"}, {"size": "256"}]}}}, "dtype": {"type": "DT_FLOAT"}}}, {"name": "StatefulPartitionedCall/U-Net_1/conv2d_11_1/Squeeze", "op": "Const", "attr": {"value": {"tensor": {"dtype": "DT_FLOAT", "tensorShape": {"dim": [{"size": "256"}]}}}, "dtype": {"type": "DT_FLOAT"}}}, {"name": "StatefulPartitionedCall/U-Net_1/batch_normalization_11_1/batchnorm/mul", "op": "Const", "attr": {"value": {"tensor": {"dtype": "DT_FLOAT", "tensorShape": {"dim": [{"size": "256"}]}}}, "dtype": {"type": "DT_FLOAT"}}}, {"name": "StatefulPartitionedCall/U-Net_1/batch_normalization_11_1/batchnorm/sub", "op": "Const", "attr": {"value": {"tensor": {"dtype": "DT_FLOAT", "tensorShape": {"dim": [{"size": "256"}]}}}, "dtype": {"type": "DT_FLOAT"}}}, {"name": "StatefulPartitionedCall/U-Net_1/conv2d_transpose_1_2/Squeeze", "op": "Const", "attr": {"value": {"tensor": {"dtype": "DT_FLOAT", "tensorShape": {"dim": [{"size": "128"}]}}}, "dtype": {"type": "DT_FLOAT"}}}, {"name": "StatefulPartitionedCall/U-Net_1/conv2d_4_1/convolution/ReadVariableOp", "op": "Const", "attr": {"value": {"tensor": {"dtype": "DT_FLOAT", "tensorShape": {"dim": [{"size": "3"}, {"size": "3"}, {"size": "64"}, {"size": "128"}]}}}, "dtype": {"type": "DT_FLOAT"}}}, {"name": "StatefulPartitionedCall/U-Net_1/conv2d_4_1/Squeeze", "op": "Const", "attr": {"value": {"tensor": {"dtype": "DT_FLOAT", "tensorShape": {"dim": [{"size": "128"}]}}}, "dtype": {"type": "DT_FLOAT"}}}, {"name": "StatefulPartitionedCall/U-Net_1/batch_normalization_4_1/batchnorm/mul", "op": "Const", "attr": {"value": {"tensor": {"dtype": "DT_FLOAT", "tensorShape": {"dim": [{"size": "128"}]}}}, "dtype": {"type": "DT_FLOAT"}}}, {"name": "StatefulPartitionedCall/U-Net_1/batch_normalization_4_1/batchnorm/sub", "op": "Const", "attr": {"value": {"tensor": {"dtype": "DT_FLOAT", "tensorShape": {"dim": [{"size": "128"}]}}}, "dtype": {"type": "DT_FLOAT"}}}, {"name": "StatefulPartitionedCall/U-Net_1/conv2d_5_1/convolution/ReadVariableOp", "op": "Const", "attr": {"value": {"tensor": {"dtype": "DT_FLOAT", "tensorShape": {"dim": [{"size": "3"}, {"size": "3"}, {"size": "128"}, {"size": "128"}]}}}, "dtype": {"type": "DT_FLOAT"}}}, {"name": "StatefulPartitionedCall/U-Net_1/conv2d_5_1/Squeeze", "op": "Const", "attr": {"value": {"tensor": {"dtype": "DT_FLOAT", "tensorShape": {"dim": [{"size": "128"}]}}}, "dtype": {"type": "DT_FLOAT"}}}, {"name": "StatefulPartitionedCall/U-Net_1/batch_normalization_5_1/batchnorm/mul", "op": "Const", "attr": {"value": {"tensor": {"dtype": "DT_FLOAT", "tensorShape": {"dim": [{"size": "128"}]}}}, "dtype": {"type": "DT_FLOAT"}}}, {"name": "StatefulPartitionedCall/U-Net_1/batch_normalization_5_1/batchnorm/sub", "op": "Const", "attr": {"value": {"tensor": {"dtype": "DT_FLOAT", "tensorShape": {"dim": [{"size": "128"}]}}}, "dtype": {"type": "DT_FLOAT"}}}, {"name": "StatefulPartitionedCall/U-Net_1/concatenate_1_2/concat/axis", "op": "Const", "attr": {"value": {"tensor": {"dtype": "DT_INT32", "tensorShape": {}}}, "dtype": {"type": "DT_INT32"}}}, {"name": "StatefulPartitionedCall/U-Net_1/conv2d_12_1/convolution/ReadVariableOp", "op": "Const", "attr": {"value": {"tensor": {"dtype": "DT_FLOAT", "tensorShape": {"dim": [{"size": "3"}, {"size": "3"}, {"size": "256"}, {"size": "128"}]}}}, "dtype": {"type": "DT_FLOAT"}}}, {"name": "StatefulPartitionedCall/U-Net_1/conv2d_12_1/Squeeze", "op": "Const", "attr": {"value": {"tensor": {"dtype": "DT_FLOAT", "tensorShape": {"dim": [{"size": "128"}]}}}, "dtype": {"type": "DT_FLOAT"}}}, {"name": "StatefulPartitionedCall/U-Net_1/batch_normalization_12_1/batchnorm/mul", "op": "Const", "attr": {"value": {"tensor": {"dtype": "DT_FLOAT", "tensorShape": {"dim": [{"size": "128"}]}}}, "dtype": {"type": "DT_FLOAT"}}}, {"name": "StatefulPartitionedCall/U-Net_1/batch_normalization_12_1/batchnorm/sub", "op": "Const", "attr": {"value": {"tensor": {"dtype": "DT_FLOAT", "tensorShape": {"dim": [{"size": "128"}]}}}, "dtype": {"type": "DT_FLOAT"}}}, {"name": "StatefulPartitionedCall/U-Net_1/conv2d_13_1/convolution/ReadVariableOp", "op": "Const", "attr": {"value": {"tensor": {"dtype": "DT_FLOAT", "tensorShape": {"dim": [{"size": "3"}, {"size": "3"}, {"size": "128"}, {"size": "128"}]}}}, "dtype": {"type": "DT_FLOAT"}}}, {"name": "StatefulPartitionedCall/U-Net_1/conv2d_13_1/Squeeze", "op": "Const", "attr": {"value": {"tensor": {"dtype": "DT_FLOAT", "tensorShape": {"dim": [{"size": "128"}]}}}, "dtype": {"type": "DT_FLOAT"}}}, {"name": "StatefulPartitionedCall/U-Net_1/batch_normalization_13_1/batchnorm/mul", "op": "Const", "attr": {"value": {"tensor": {"dtype": "DT_FLOAT", "tensorShape": {"dim": [{"size": "128"}]}}}, "dtype": {"type": "DT_FLOAT"}}}, {"name": "StatefulPartitionedCall/U-Net_1/batch_normalization_13_1/batchnorm/sub", "op": "Const", "attr": {"value": {"tensor": {"dtype": "DT_FLOAT", "tensorShape": {"dim": [{"size": "128"}]}}}, "dtype": {"type": "DT_FLOAT"}}}, {"name": "StatefulPartitionedCall/U-Net_1/conv2d_transpose_2_1/Squeeze", "op": "Const", "attr": {"value": {"tensor": {"dtype": "DT_FLOAT", "tensorShape": {"dim": [{"size": "64"}]}}}, "dtype": {"type": "DT_FLOAT"}}}, {"name": "StatefulPartitionedCall/U-Net_1/conv2d_2_1/convolution/ReadVariableOp", "op": "Const", "attr": {"value": {"tensor": {"dtype": "DT_FLOAT", "tensorShape": {"dim": [{"size": "3"}, {"size": "3"}, {"size": "32"}, {"size": "64"}]}}}, "dtype": {"type": "DT_FLOAT"}}}, {"name": "StatefulPartitionedCall/U-Net_1/conv2d_2_1/Squeeze", "op": "Const", "attr": {"value": {"tensor": {"dtype": "DT_FLOAT", "tensorShape": {"dim": [{"size": "64"}]}}}, "dtype": {"type": "DT_FLOAT"}}}, {"name": "StatefulPartitionedCall/U-Net_1/batch_normalization_2_1/batchnorm/mul", "op": "Const", "attr": {"value": {"tensor": {"dtype": "DT_FLOAT", "tensorShape": {"dim": [{"size": "64"}]}}}, "dtype": {"type": "DT_FLOAT"}}}, {"name": "StatefulPartitionedCall/U-Net_1/batch_normalization_2_1/batchnorm/sub", "op": "Const", "attr": {"value": {"tensor": {"dtype": "DT_FLOAT", "tensorShape": {"dim": [{"size": "64"}]}}}, "dtype": {"type": "DT_FLOAT"}}}, {"name": "StatefulPartitionedCall/U-Net_1/conv2d_3_1/convolution/ReadVariableOp", "op": "Const", "attr": {"value": {"tensor": {"dtype": "DT_FLOAT", "tensorShape": {"dim": [{"size": "3"}, {"size": "3"}, {"size": "64"}, {"size": "64"}]}}}, "dtype": {"type": "DT_FLOAT"}}}, {"name": "StatefulPartitionedCall/U-Net_1/conv2d_3_1/Squeeze", "op": "Const", "attr": {"value": {"tensor": {"dtype": "DT_FLOAT", "tensorShape": {"dim": [{"size": "64"}]}}}, "dtype": {"type": "DT_FLOAT"}}}, {"name": "StatefulPartitionedCall/U-Net_1/batch_normalization_3_1/batchnorm/mul", "op": "Const", "attr": {"value": {"tensor": {"dtype": "DT_FLOAT", "tensorShape": {"dim": [{"size": "64"}]}}}, "dtype": {"type": "DT_FLOAT"}}}, {"name": "StatefulPartitionedCall/U-Net_1/batch_normalization_3_1/batchnorm/sub", "op": "Const", "attr": {"value": {"tensor": {"dtype": "DT_FLOAT", "tensorShape": {"dim": [{"size": "64"}]}}}, "dtype": {"type": "DT_FLOAT"}}}, {"name": "StatefulPartitionedCall/U-Net_1/concatenate_2_1/concat/axis", "op": "Const", "attr": {"value": {"tensor": {"dtype": "DT_INT32", "tensorShape": {}}}, "dtype": {"type": "DT_INT32"}}}, {"name": "StatefulPartitionedCall/U-Net_1/conv2d_14_1/convolution/ReadVariableOp", "op": "Const", "attr": {"value": {"tensor": {"dtype": "DT_FLOAT", "tensorShape": {"dim": [{"size": "3"}, {"size": "3"}, {"size": "128"}, {"size": "64"}]}}}, "dtype": {"type": "DT_FLOAT"}}}, {"name": "StatefulPartitionedCall/U-Net_1/conv2d_14_1/Squeeze", "op": "Const", "attr": {"value": {"tensor": {"dtype": "DT_FLOAT", "tensorShape": {"dim": [{"size": "64"}]}}}, "dtype": {"type": "DT_FLOAT"}}}, {"name": "StatefulPartitionedCall/U-Net_1/batch_normalization_14_1/batchnorm/mul", "op": "Const", "attr": {"value": {"tensor": {"dtype": "DT_FLOAT", "tensorShape": {"dim": [{"size": "64"}]}}}, "dtype": {"type": "DT_FLOAT"}}}, {"name": "StatefulPartitionedCall/U-Net_1/batch_normalization_14_1/batchnorm/sub", "op": "Const", "attr": {"value": {"tensor": {"dtype": "DT_FLOAT", "tensorShape": {"dim": [{"size": "64"}]}}}, "dtype": {"type": "DT_FLOAT"}}}, {"name": "StatefulPartitionedCall/U-Net_1/conv2d_15_1/convolution/ReadVariableOp", "op": "Const", "attr": {"value": {"tensor": {"dtype": "DT_FLOAT", "tensorShape": {"dim": [{"size": "3"}, {"size": "3"}, {"size": "64"}, {"size": "64"}]}}}, "dtype": {"type": "DT_FLOAT"}}}, {"name": "StatefulPartitionedCall/U-Net_1/conv2d_15_1/Squeeze", "op": "Const", "attr": {"value": {"tensor": {"dtype": "DT_FLOAT", "tensorShape": {"dim": [{"size": "64"}]}}}, "dtype": {"type": "DT_FLOAT"}}}, {"name": "StatefulPartitionedCall/U-Net_1/batch_normalization_15_1/batchnorm/mul", "op": "Const", "attr": {"value": {"tensor": {"dtype": "DT_FLOAT", "tensorShape": {"dim": [{"size": "64"}]}}}, "dtype": {"type": "DT_FLOAT"}}}, {"name": "StatefulPartitionedCall/U-Net_1/batch_normalization_15_1/batchnorm/sub", "op": "Const", "attr": {"value": {"tensor": {"dtype": "DT_FLOAT", "tensorShape": {"dim": [{"size": "64"}]}}}, "dtype": {"type": "DT_FLOAT"}}}, {"name": "StatefulPartitionedCall/U-Net_1/conv2d_transpose_3_1/Squeeze", "op": "Const", "attr": {"value": {"tensor": {"dtype": "DT_FLOAT", "tensorShape": {"dim": [{"size": "32"}]}}}, "dtype": {"type": "DT_FLOAT"}}}, {"name": "StatefulPartitionedCall/U-Net_1/conv2d_1/convolution/ReadVariableOp", "op": "Const", "attr": {"value": {"tensor": {"dtype": "DT_FLOAT", "tensorShape": {"dim": [{"size": "3"}, {"size": "3"}, {"size": "3"}, {"size": "32"}]}}}, "dtype": {"type": "DT_FLOAT"}}}, {"name": "StatefulPartitionedCall/U-Net_1/conv2d_1/Squeeze", "op": "Const", "attr": {"value": {"tensor": {"dtype": "DT_FLOAT", "tensorShape": {"dim": [{"size": "32"}]}}}, "dtype": {"type": "DT_FLOAT"}}}, {"name": "StatefulPartitionedCall/U-Net_1/batch_normalization_1/batchnorm/mul", "op": "Const", "attr": {"value": {"tensor": {"dtype": "DT_FLOAT", "tensorShape": {"dim": [{"size": "32"}]}}}, "dtype": {"type": "DT_FLOAT"}}}, {"name": "StatefulPartitionedCall/U-Net_1/batch_normalization_1/batchnorm/sub", "op": "Const", "attr": {"value": {"tensor": {"dtype": "DT_FLOAT", "tensorShape": {"dim": [{"size": "32"}]}}}, "dtype": {"type": "DT_FLOAT"}}}, {"name": "StatefulPartitionedCall/U-Net_1/conv2d_1_2/convolution/ReadVariableOp", "op": "Const", "attr": {"value": {"tensor": {"dtype": "DT_FLOAT", "tensorShape": {"dim": [{"size": "3"}, {"size": "3"}, {"size": "32"}, {"size": "32"}]}}}, "dtype": {"type": "DT_FLOAT"}}}, {"name": "StatefulPartitionedCall/U-Net_1/conv2d_1_2/Squeeze", "op": "Const", "attr": {"value": {"tensor": {"dtype": "DT_FLOAT", "tensorShape": {"dim": [{"size": "32"}]}}}, "dtype": {"type": "DT_FLOAT"}}}, {"name": "StatefulPartitionedCall/U-Net_1/batch_normalization_1_2/batchnorm/mul", "op": "Const", "attr": {"value": {"tensor": {"dtype": "DT_FLOAT", "tensorShape": {"dim": [{"size": "32"}]}}}, "dtype": {"type": "DT_FLOAT"}}}, {"name": "StatefulPartitionedCall/U-Net_1/batch_normalization_1_2/batchnorm/sub", "op": "Const", "attr": {"value": {"tensor": {"dtype": "DT_FLOAT", "tensorShape": {"dim": [{"size": "32"}]}}}, "dtype": {"type": "DT_FLOAT"}}}, {"name": "StatefulPartitionedCall/U-Net_1/concatenate_3_1/concat/axis", "op": "Const", "attr": {"value": {"tensor": {"dtype": "DT_INT32", "tensorShape": {}}}, "dtype": {"type": "DT_INT32"}}}, {"name": "StatefulPartitionedCall/U-Net_1/conv2d_16_1/convolution/ReadVariableOp", "op": "Const", "attr": {"value": {"tensor": {"dtype": "DT_FLOAT", "tensorShape": {"dim": [{"size": "3"}, {"size": "3"}, {"size": "64"}, {"size": "32"}]}}}, "dtype": {"type": "DT_FLOAT"}}}, {"name": "StatefulPartitionedCall/U-Net_1/conv2d_16_1/Squeeze", "op": "Const", "attr": {"value": {"tensor": {"dtype": "DT_FLOAT", "tensorShape": {"dim": [{"size": "32"}]}}}, "dtype": {"type": "DT_FLOAT"}}}, {"name": "StatefulPartitionedCall/U-Net_1/batch_normalization_16_1/batchnorm/mul", "op": "Const", "attr": {"value": {"tensor": {"dtype": "DT_FLOAT", "tensorShape": {"dim": [{"size": "32"}]}}}, "dtype": {"type": "DT_FLOAT"}}}, {"name": "StatefulPartitionedCall/U-Net_1/batch_normalization_16_1/batchnorm/sub", "op": "Const", "attr": {"value": {"tensor": {"dtype": "DT_FLOAT", "tensorShape": {"dim": [{"size": "32"}]}}}, "dtype": {"type": "DT_FLOAT"}}}, {"name": "StatefulPartitionedCall/U-Net_1/conv2d_17_1/convolution/ReadVariableOp", "op": "Const", "attr": {"value": {"tensor": {"dtype": "DT_FLOAT", "tensorShape": {"dim": [{"size": "3"}, {"size": "3"}, {"size": "32"}, {"size": "32"}]}}}, "dtype": {"type": "DT_FLOAT"}}}, {"name": "StatefulPartitionedCall/U-Net_1/conv2d_17_1/Squeeze", "op": "Const", "attr": {"value": {"tensor": {"dtype": "DT_FLOAT", "tensorShape": {"dim": [{"size": "32"}]}}}, "dtype": {"type": "DT_FLOAT"}}}, {"name": "StatefulPartitionedCall/U-Net_1/batch_normalization_17_1/batchnorm/mul", "op": "Const", "attr": {"value": {"tensor": {"dtype": "DT_FLOAT", "tensorShape": {"dim": [{"size": "32"}]}}}, "dtype": {"type": "DT_FLOAT"}}}, {"name": "StatefulPartitionedCall/U-Net_1/batch_normalization_17_1/batchnorm/sub", "op": "Const", "attr": {"value": {"tensor": {"dtype": "DT_FLOAT", "tensorShape": {"dim": [{"size": "32"}]}}}, "dtype": {"type": "DT_FLOAT"}}}, {"name": "StatefulPartitionedCall/U-Net_1/conv2d_18_1/convolution/ReadVariableOp", "op": "Const", "attr": {"value": {"tensor": {"dtype": "DT_FLOAT", "tensorShape": {"dim": [{"size": "1"}, {"size": "1"}, {"size": "32"}, {"size": "1"}]}}}, "dtype": {"type": "DT_FLOAT"}}}, {"name": "StatefulPartitionedCall/U-Net_1/conv2d_18_1/Reshape", "op": "Const", "attr": {"value": {"tensor": {"dtype": "DT_FLOAT", "tensorShape": {"dim": [{"size": "1"}, {"size": "1"}, {"size": "1"}, {"size": "1"}]}}}, "dtype": {"type": "DT_FLOAT"}}}, {"name": "input_layer", "op": "Placeholder", "attr": {"dtype": {"type": "DT_FLOAT"}, "shape": {"shape": {"dim": [{"size": "-1"}, {"size": "128"}, {"size": "128"}, {"size": "3"}]}}}}, {"name": "StatefulPartitionedCall/U-Net_1/conv2d_1/Relu", "op": "_FusedConv2D", "input": ["input_layer", "StatefulPartitionedCall/U-Net_1/conv2d_1/convolution/ReadVariableOp", "StatefulPartitionedCall/U-Net_1/conv2d_1/Squeeze"], "device": "/device:CPU:0", "attr": {"TArgs": {"list": {"type": ["DT_FLOAT"]}}, "fused_ops": {"list": {"s": ["Qmlhc0FkZA==", "UmVsdQ=="]}}, "data_format": {"s": "TkhXQw=="}, "T": {"type": "DT_FLOAT"}, "padding": {"s": "U0FNRQ=="}, "explicit_paddings": {"list": {}}, "dilations": {"list": {"i": ["1", "1", "1", "1"]}}, "filter_format": {"s": "SFdJTw=="}, "num_args": {"i": "1"}, "epsilon": {"f": 0.0}, "strides": {"list": {"i": ["1", "1", "1", "1"]}}, "use_cudnn_on_gpu": {"b": true}, "num_host_args": {"i": "0"}, "leakyrelu_alpha": {"f": 0.2}}}, {"name": "StatefulPartitionedCall/U-Net_1/batch_normalization_1/batchnorm/mul_1", "op": "Mul", "input": ["StatefulPartitionedCall/U-Net_1/conv2d_1/Relu", "StatefulPartitionedCall/U-Net_1/batch_normalization_1/batchnorm/mul"], "attr": {"T": {"type": "DT_FLOAT"}}}, {"name": "StatefulPartitionedCall/U-Net_1/batch_normalization_1/batchnorm/add_1", "op": "AddV2", "input": ["StatefulPartitionedCall/U-Net_1/batch_normalization_1/batchnorm/mul_1", "StatefulPartitionedCall/U-Net_1/batch_normalization_1/batchnorm/sub"], "attr": {"T": {"type": "DT_FLOAT"}}}, {"name": "StatefulPartitionedCall/U-Net_1/conv2d_1_2/Relu", "op": "_FusedConv2D", "input": ["StatefulPartitionedCall/U-Net_1/batch_normalization_1/batchnorm/add_1", "StatefulPartitionedCall/U-Net_1/conv2d_1_2/convolution/ReadVariableOp", "StatefulPartitionedCall/U-Net_1/conv2d_1_2/Squeeze"], "device": "/device:CPU:0", "attr": {"TArgs": {"list": {"type": ["DT_FLOAT"]}}, "fused_ops": {"list": {"s": ["Qmlhc0FkZA==", "UmVsdQ=="]}}, "data_format": {"s": "TkhXQw=="}, "T": {"type": "DT_FLOAT"}, "padding": {"s": "U0FNRQ=="}, "num_args": {"i": "1"}, "dilations": {"list": {"i": ["1", "1", "1", "1"]}}, "explicit_paddings": {"list": {}}, "filter_format": {"s": "SFdJTw=="}, "epsilon": {"f": 0.0}, "strides": {"list": {"i": ["1", "1", "1", "1"]}}, "use_cudnn_on_gpu": {"b": true}, "leakyrelu_alpha": {"f": 0.2}, "num_host_args": {"i": "0"}}}, {"name": "StatefulPartitionedCall/U-Net_1/batch_normalization_1_2/batchnorm/mul_1", "op": "Mul", "input": ["StatefulPartitionedCall/U-Net_1/conv2d_1_2/Relu", "StatefulPartitionedCall/U-Net_1/batch_normalization_1_2/batchnorm/mul"], "attr": {"T": {"type": "DT_FLOAT"}}}, {"name": "StatefulPartitionedCall/U-Net_1/batch_normalization_1_2/batchnorm/add_1", "op": "AddV2", "input": ["StatefulPartitionedCall/U-Net_1/batch_normalization_1_2/batchnorm/mul_1", "StatefulPartitionedCall/U-Net_1/batch_normalization_1_2/batchnorm/sub"], "attr": {"T": {"type": "DT_FLOAT"}}}, {"name": "StatefulPartitionedCall/U-Net_1/max_pooling2d_1/MaxPool2d", "op": "MaxPool", "input": ["StatefulPartitionedCall/U-Net_1/batch_normalization_1_2/batchnorm/add_1"], "attr": {"strides": {"list": {"i": ["1", "2", "2", "1"]}}, "data_format": {"s": "TkhXQw=="}, "padding": {"s": "VkFMSUQ="}, "ksize": {"list": {"i": ["1", "2", "2", "1"]}}, "explicit_paddings": {"list": {}}, "T": {"type": "DT_FLOAT"}}}, {"name": "StatefulPartitionedCall/U-Net_1/conv2d_2_1/Relu", "op": "_FusedConv2D", "input": ["StatefulPartitionedCall/U-Net_1/max_pooling2d_1/MaxPool2d", "StatefulPartitionedCall/U-Net_1/conv2d_2_1/convolution/ReadVariableOp", "StatefulPartitionedCall/U-Net_1/conv2d_2_1/Squeeze"], "device": "/device:CPU:0", "attr": {"TArgs": {"list": {"type": ["DT_FLOAT"]}}, "strides": {"list": {"i": ["1", "1", "1", "1"]}}, "data_format": {"s": "TkhXQw=="}, "T": {"type": "DT_FLOAT"}, "padding": {"s": "U0FNRQ=="}, "filter_format": {"s": "SFdJTw=="}, "dilations": {"list": {"i": ["1", "1", "1", "1"]}}, "num_args": {"i": "1"}, "explicit_paddings": {"list": {}}, "epsilon": {"f": 0.0}, "fused_ops": {"list": {"s": ["Qmlhc0FkZA==", "UmVsdQ=="]}}, "use_cudnn_on_gpu": {"b": true}, "leakyrelu_alpha": {"f": 0.2}, "num_host_args": {"i": "0"}}}, {"name": "StatefulPartitionedCall/U-Net_1/batch_normalization_2_1/batchnorm/mul_1", "op": "Mul", "input": ["StatefulPartitionedCall/U-Net_1/conv2d_2_1/Relu", "StatefulPartitionedCall/U-Net_1/batch_normalization_2_1/batchnorm/mul"], "attr": {"T": {"type": "DT_FLOAT"}}}, {"name": "StatefulPartitionedCall/U-Net_1/batch_normalization_2_1/batchnorm/add_1", "op": "AddV2", "input": ["StatefulPartitionedCall/U-Net_1/batch_normalization_2_1/batchnorm/mul_1", "StatefulPartitionedCall/U-Net_1/batch_normalization_2_1/batchnorm/sub"], "attr": {"T": {"type": "DT_FLOAT"}}}, {"name": "StatefulPartitionedCall/U-Net_1/conv2d_3_1/Relu", "op": "_FusedConv2D", "input": ["StatefulPartitionedCall/U-Net_1/batch_normalization_2_1/batchnorm/add_1", "StatefulPartitionedCall/U-Net_1/conv2d_3_1/convolution/ReadVariableOp", "StatefulPartitionedCall/U-Net_1/conv2d_3_1/Squeeze"], "device": "/device:CPU:0", "attr": {"TArgs": {"list": {"type": ["DT_FLOAT"]}}, "fused_ops": {"list": {"s": ["Qmlhc0FkZA==", "UmVsdQ=="]}}, "epsilon": {"f": 0.0}, "T": {"type": "DT_FLOAT"}, "padding": {"s": "U0FNRQ=="}, "explicit_paddings": {"list": {}}, "dilations": {"list": {"i": ["1", "1", "1", "1"]}}, "num_args": {"i": "1"}, "filter_format": {"s": "SFdJTw=="}, "data_format": {"s": "TkhXQw=="}, "strides": {"list": {"i": ["1", "1", "1", "1"]}}, "use_cudnn_on_gpu": {"b": true}, "num_host_args": {"i": "0"}, "leakyrelu_alpha": {"f": 0.2}}}, {"name": "StatefulPartitionedCall/U-Net_1/batch_normalization_3_1/batchnorm/mul_1", "op": "Mul", "input": ["StatefulPartitionedCall/U-Net_1/conv2d_3_1/Relu", "StatefulPartitionedCall/U-Net_1/batch_normalization_3_1/batchnorm/mul"], "attr": {"T": {"type": "DT_FLOAT"}}}, {"name": "StatefulPartitionedCall/U-Net_1/batch_normalization_3_1/batchnorm/add_1", "op": "AddV2", "input": ["StatefulPartitionedCall/U-Net_1/batch_normalization_3_1/batchnorm/mul_1", "StatefulPartitionedCall/U-Net_1/batch_normalization_3_1/batchnorm/sub"], "attr": {"T": {"type": "DT_FLOAT"}}}, {"name": "StatefulPartitionedCall/U-Net_1/max_pooling2d_1_2/MaxPool2d", "op": "MaxPool", "input": ["StatefulPartitionedCall/U-Net_1/batch_normalization_3_1/batchnorm/add_1"], "attr": {"strides": {"list": {"i": ["1", "2", "2", "1"]}}, "data_format": {"s": "TkhXQw=="}, "padding": {"s": "VkFMSUQ="}, "ksize": {"list": {"i": ["1", "2", "2", "1"]}}, "explicit_paddings": {"list": {}}, "T": {"type": "DT_FLOAT"}}}, {"name": "StatefulPartitionedCall/U-Net_1/conv2d_4_1/Relu", "op": "_FusedConv2D", "input": ["StatefulPartitionedCall/U-Net_1/max_pooling2d_1_2/MaxPool2d", "StatefulPartitionedCall/U-Net_1/conv2d_4_1/convolution/ReadVariableOp", "StatefulPartitionedCall/U-Net_1/conv2d_4_1/Squeeze"], "device": "/device:CPU:0", "attr": {"TArgs": {"list": {"type": ["DT_FLOAT"]}}, "strides": {"list": {"i": ["1", "1", "1", "1"]}}, "data_format": {"s": "TkhXQw=="}, "T": {"type": "DT_FLOAT"}, "padding": {"s": "U0FNRQ=="}, "num_args": {"i": "1"}, "dilations": {"list": {"i": ["1", "1", "1", "1"]}}, "explicit_paddings": {"list": {}}, "filter_format": {"s": "SFdJTw=="}, "epsilon": {"f": 0.0}, "fused_ops": {"list": {"s": ["Qmlhc0FkZA==", "UmVsdQ=="]}}, "use_cudnn_on_gpu": {"b": true}, "num_host_args": {"i": "0"}, "leakyrelu_alpha": {"f": 0.2}}}, {"name": "StatefulPartitionedCall/U-Net_1/batch_normalization_4_1/batchnorm/mul_1", "op": "Mul", "input": ["StatefulPartitionedCall/U-Net_1/conv2d_4_1/Relu", "StatefulPartitionedCall/U-Net_1/batch_normalization_4_1/batchnorm/mul"], "attr": {"T": {"type": "DT_FLOAT"}}}, {"name": "StatefulPartitionedCall/U-Net_1/batch_normalization_4_1/batchnorm/add_1", "op": "AddV2", "input": ["StatefulPartitionedCall/U-Net_1/batch_normalization_4_1/batchnorm/mul_1", "StatefulPartitionedCall/U-Net_1/batch_normalization_4_1/batchnorm/sub"], "attr": {"T": {"type": "DT_FLOAT"}}}, {"name": "StatefulPartitionedCall/U-Net_1/conv2d_5_1/Relu", "op": "_FusedConv2D", "input": ["StatefulPartitionedCall/U-Net_1/batch_normalization_4_1/batchnorm/add_1", "StatefulPartitionedCall/U-Net_1/conv2d_5_1/convolution/ReadVariableOp", "StatefulPartitionedCall/U-Net_1/conv2d_5_1/Squeeze"], "device": "/device:CPU:0", "attr": {"TArgs": {"list": {"type": ["DT_FLOAT"]}}, "strides": {"list": {"i": ["1", "1", "1", "1"]}}, "data_format": {"s": "TkhXQw=="}, "T": {"type": "DT_FLOAT"}, "padding": {"s": "U0FNRQ=="}, "filter_format": {"s": "SFdJTw=="}, "dilations": {"list": {"i": ["1", "1", "1", "1"]}}, "num_args": {"i": "1"}, "explicit_paddings": {"list": {}}, "epsilon": {"f": 0.0}, "fused_ops": {"list": {"s": ["Qmlhc0FkZA==", "UmVsdQ=="]}}, "use_cudnn_on_gpu": {"b": true}, "leakyrelu_alpha": {"f": 0.2}, "num_host_args": {"i": "0"}}}, {"name": "StatefulPartitionedCall/U-Net_1/batch_normalization_5_1/batchnorm/mul_1", "op": "Mul", "input": ["StatefulPartitionedCall/U-Net_1/conv2d_5_1/Relu", "StatefulPartitionedCall/U-Net_1/batch_normalization_5_1/batchnorm/mul"], "attr": {"T": {"type": "DT_FLOAT"}}}, {"name": "StatefulPartitionedCall/U-Net_1/batch_normalization_5_1/batchnorm/add_1", "op": "AddV2", "input": ["StatefulPartitionedCall/U-Net_1/batch_normalization_5_1/batchnorm/mul_1", "StatefulPartitionedCall/U-Net_1/batch_normalization_5_1/batchnorm/sub"], "attr": {"T": {"type": "DT_FLOAT"}}}, {"name": "StatefulPartitionedCall/U-Net_1/max_pooling2d_2_1/MaxPool2d", "op": "MaxPool", "input": ["StatefulPartitionedCall/U-Net_1/batch_normalization_5_1/batchnorm/add_1"], "attr": {"strides": {"list": {"i": ["1", "2", "2", "1"]}}, "data_format": {"s": "TkhXQw=="}, "padding": {"s": "VkFMSUQ="}, "ksize": {"list": {"i": ["1", "2", "2", "1"]}}, "explicit_paddings": {"list": {}}, "T": {"type": "DT_FLOAT"}}}, {"name": "StatefulPartitionedCall/U-Net_1/conv2d_6_1/Relu", "op": "_FusedConv2D", "input": ["StatefulPartitionedCall/U-Net_1/max_pooling2d_2_1/MaxPool2d", "StatefulPartitionedCall/U-Net_1/conv2d_6_1/convolution/ReadVariableOp", "StatefulPartitionedCall/U-Net_1/conv2d_6_1/Squeeze"], "device": "/device:CPU:0", "attr": {"TArgs": {"list": {"type": ["DT_FLOAT"]}}, "strides": {"list": {"i": ["1", "1", "1", "1"]}}, "data_format": {"s": "TkhXQw=="}, "padding": {"s": "U0FNRQ=="}, "T": {"type": "DT_FLOAT"}, "explicit_paddings": {"list": {}}, "dilations": {"list": {"i": ["1", "1", "1", "1"]}}, "filter_format": {"s": "SFdJTw=="}, "num_args": {"i": "1"}, "epsilon": {"f": 0.0}, "fused_ops": {"list": {"s": ["Qmlhc0FkZA==", "UmVsdQ=="]}}, "use_cudnn_on_gpu": {"b": true}, "leakyrelu_alpha": {"f": 0.2}, "num_host_args": {"i": "0"}}}, {"name": "StatefulPartitionedCall/U-Net_1/batch_normalization_6_1/batchnorm/mul_1", "op": "Mul", "input": ["StatefulPartitionedCall/U-Net_1/conv2d_6_1/Relu", "StatefulPartitionedCall/U-Net_1/batch_normalization_6_1/batchnorm/mul"], "attr": {"T": {"type": "DT_FLOAT"}}}, {"name": "StatefulPartitionedCall/U-Net_1/batch_normalization_6_1/batchnorm/add_1", "op": "AddV2", "input": ["StatefulPartitionedCall/U-Net_1/batch_normalization_6_1/batchnorm/mul_1", "StatefulPartitionedCall/U-Net_1/batch_normalization_6_1/batchnorm/sub"], "attr": {"T": {"type": "DT_FLOAT"}}}, {"name": "StatefulPartitionedCall/U-Net_1/conv2d_7_1/Relu", "op": "_FusedConv2D", "input": ["StatefulPartitionedCall/U-Net_1/batch_normalization_6_1/batchnorm/add_1", "StatefulPartitionedCall/U-Net_1/conv2d_7_1/convolution/ReadVariableOp", "StatefulPartitionedCall/U-Net_1/conv2d_7_1/Squeeze"], "device": "/device:CPU:0", "attr": {"TArgs": {"list": {"type": ["DT_FLOAT"]}}, "strides": {"list": {"i": ["1", "1", "1", "1"]}}, "epsilon": {"f": 0.0}, "padding": {"s": "U0FNRQ=="}, "T": {"type": "DT_FLOAT"}, "filter_format": {"s": "SFdJTw=="}, "dilations": {"list": {"i": ["1", "1", "1", "1"]}}, "explicit_paddings": {"list": {}}, "num_args": {"i": "1"}, "data_format": {"s": "TkhXQw=="}, "fused_ops": {"list": {"s": ["Qmlhc0FkZA==", "UmVsdQ=="]}}, "use_cudnn_on_gpu": {"b": true}, "leakyrelu_alpha": {"f": 0.2}, "num_host_args": {"i": "0"}}}, {"name": "StatefulPartitionedCall/U-Net_1/batch_normalization_7_1/batchnorm/mul_1", "op": "Mul", "input": ["StatefulPartitionedCall/U-Net_1/conv2d_7_1/Relu", "StatefulPartitionedCall/U-Net_1/batch_normalization_7_1/batchnorm/mul"], "attr": {"T": {"type": "DT_FLOAT"}}}, {"name": "StatefulPartitionedCall/U-Net_1/batch_normalization_7_1/batchnorm/add_1", "op": "AddV2", "input": ["StatefulPartitionedCall/U-Net_1/batch_normalization_7_1/batchnorm/mul_1", "StatefulPartitionedCall/U-Net_1/batch_normalization_7_1/batchnorm/sub"], "attr": {"T": {"type": "DT_FLOAT"}}}, {"name": "StatefulPartitionedCall/U-Net_1/max_pooling2d_3_1/MaxPool2d", "op": "MaxPool", "input": ["StatefulPartitionedCall/U-Net_1/batch_normalization_7_1/batchnorm/add_1"], "attr": {"strides": {"list": {"i": ["1", "2", "2", "1"]}}, "data_format": {"s": "TkhXQw=="}, "T": {"type": "DT_FLOAT"}, "ksize": {"list": {"i": ["1", "2", "2", "1"]}}, "explicit_paddings": {"list": {}}, "padding": {"s": "VkFMSUQ="}}}, {"name": "StatefulPartitionedCall/U-Net_1/conv2d_8_1/Relu", "op": "_FusedConv2D", "input": ["StatefulPartitionedCall/U-Net_1/max_pooling2d_3_1/MaxPool2d", "StatefulPartitionedCall/U-Net_1/conv2d_8_1/convolution/ReadVariableOp", "StatefulPartitionedCall/U-Net_1/conv2d_8_1/Squeeze"], "device": "/device:CPU:0", "attr": {"TArgs": {"list": {"type": ["DT_FLOAT"]}}, "fused_ops": {"list": {"s": ["Qmlhc0FkZA==", "UmVsdQ=="]}}, "epsilon": {"f": 0.0}, "padding": {"s": "U0FNRQ=="}, "T": {"type": "DT_FLOAT"}, "filter_format": {"s": "SFdJTw=="}, "dilations": {"list": {"i": ["1", "1", "1", "1"]}}, "explicit_paddings": {"list": {}}, "num_args": {"i": "1"}, "data_format": {"s": "TkhXQw=="}, "strides": {"list": {"i": ["1", "1", "1", "1"]}}, "use_cudnn_on_gpu": {"b": true}, "leakyrelu_alpha": {"f": 0.2}, "num_host_args": {"i": "0"}}}, {"name": "StatefulPartitionedCall/U-Net_1/batch_normalization_8_1/batchnorm/mul_1", "op": "Mul", "input": ["StatefulPartitionedCall/U-Net_1/conv2d_8_1/Relu", "StatefulPartitionedCall/U-Net_1/batch_normalization_8_1/batchnorm/mul"], "attr": {"T": {"type": "DT_FLOAT"}}}, {"name": "StatefulPartitionedCall/U-Net_1/batch_normalization_8_1/batchnorm/add_1", "op": "AddV2", "input": ["StatefulPartitionedCall/U-Net_1/batch_normalization_8_1/batchnorm/mul_1", "StatefulPartitionedCall/U-Net_1/batch_normalization_8_1/batchnorm/sub"], "attr": {"T": {"type": "DT_FLOAT"}}}, {"name": "StatefulPartitionedCall/U-Net_1/conv2d_9_1/Relu", "op": "_FusedConv2D", "input": ["StatefulPartitionedCall/U-Net_1/batch_normalization_8_1/batchnorm/add_1", "StatefulPartitionedCall/U-Net_1/conv2d_9_1/convolution/ReadVariableOp", "StatefulPartitionedCall/U-Net_1/conv2d_9_1/Squeeze"], "device": "/device:CPU:0", "attr": {"TArgs": {"list": {"type": ["DT_FLOAT"]}}, "fused_ops": {"list": {"s": ["Qmlhc0FkZA==", "UmVsdQ=="]}}, "data_format": {"s": "TkhXQw=="}, "padding": {"s": "U0FNRQ=="}, "T": {"type": "DT_FLOAT"}, "filter_format": {"s": "SFdJTw=="}, "dilations": {"list": {"i": ["1", "1", "1", "1"]}}, "num_args": {"i": "1"}, "explicit_paddings": {"list": {}}, "epsilon": {"f": 0.0}, "strides": {"list": {"i": ["1", "1", "1", "1"]}}, "use_cudnn_on_gpu": {"b": true}, "num_host_args": {"i": "0"}, "leakyrelu_alpha": {"f": 0.2}}}, {"name": "StatefulPartitionedCall/U-Net_1/batch_normalization_9_1/batchnorm/mul_1", "op": "Mul", "input": ["StatefulPartitionedCall/U-Net_1/conv2d_9_1/Relu", "StatefulPartitionedCall/U-Net_1/batch_normalization_9_1/batchnorm/mul"], "attr": {"T": {"type": "DT_FLOAT"}}}, {"name": "StatefulPartitionedCall/U-Net_1/batch_normalization_9_1/batchnorm/add_1", "op": "AddV2", "input": ["StatefulPartitionedCall/U-Net_1/batch_normalization_9_1/batchnorm/mul_1", "StatefulPartitionedCall/U-Net_1/batch_normalization_9_1/batchnorm/sub"], "attr": {"T": {"type": "DT_FLOAT"}}}, {"name": "StatefulPartitionedCall/U-Net_1/conv2d_transpose_1/Shape", "op": "Shape", "input": ["StatefulPartitionedCall/U-Net_1/batch_normalization_9_1/batchnorm/add_1"], "attr": {"out_type": {"type": "DT_INT32"}, "T": {"type": "DT_FLOAT"}}, "experimentalType": {"typeId": "TFT_PRODUCT", "args": [{"typeId": "TFT_SHAPE_TENSOR", "args": [{"typeId": "TFT_INT32"}]}]}}, {"name": "StatefulPartitionedCall/U-Net_1/conv2d_transpose_1/strided_slice", "op": "StridedSlice", "input": ["StatefulPartitionedCall/U-Net_1/conv2d_transpose_1/Shape", "StatefulPartitionedCall/U-Net_1/conv2d_transpose_1/strided_slice/stack", "StatefulPartitionedCall/U-Net_1/conv2d_transpose_1/strided_slice/stack_1", "StatefulPartitionedCall/U-Net_1/conv2d_transpose_1/strided_slice/stack_2"], "attr": {"begin_mask": {"i": "0"}, "Index": {"type": "DT_INT32"}, "T": {"type": "DT_INT32"}, "shrink_axis_mask": {"i": "1"}, "end_mask": {"i": "0"}, "new_axis_mask": {"i": "0"}, "ellipsis_mask": {"i": "0"}}}, {"name": "StatefulPartitionedCall/U-Net_1/conv2d_transpose_1/conv_transpose/input_sizes", "op": "Pack", "input": ["StatefulPartitionedCall/U-Net_1/conv2d_transpose_1/strided_slice", "StatefulPartitionedCall/U-Net_1/conv2d_transpose_1/conv_transpose/input_sizes/1", "StatefulPartitionedCall/U-Net_1/conv2d_transpose_1/conv_transpose/input_sizes/2", "StatefulPartitionedCall/U-Net_1/conv2d_transpose_1/conv_transpose/input_sizes/3"], "attr": {"T": {"type": "DT_INT32"}, "axis": {"i": "0"}, "N": {"i": "4"}}}, {"name": "StatefulPartitionedCall/U-Net_1/conv2d_transpose_1/conv_transpose", "op": "Conv2DBackpropInput", "input": ["StatefulPartitionedCall/U-Net_1/conv2d_transpose_1/conv_transpose/input_sizes", "StatefulPartitionedCall/U-Net_1/conv2d_transpose_1/conv_transpose/ReadVariableOp", "StatefulPartitionedCall/U-Net_1/batch_normalization_9_1/batchnorm/add_1"], "attr": {"strides": {"list": {"i": ["1", "2", "2", "1"]}}, "data_format": {"s": "TkhXQw=="}, "T": {"type": "DT_FLOAT"}, "use_cudnn_on_gpu": {"b": true}, "explicit_paddings": {"list": {}}, "dilations": {"list": {"i": ["1", "1", "1", "1"]}}, "padding": {"s": "U0FNRQ=="}}}, {"name": "StatefulPartitionedCall/U-Net_1/conv2d_transpose_1/BiasAdd", "op": "BiasAdd", "input": ["StatefulPartitionedCall/U-Net_1/conv2d_transpose_1/conv_transpose", "StatefulPartitionedCall/U-Net_1/conv2d_transpose_1/Squeeze"], "attr": {"data_format": {"s": "TkhXQw=="}, "T": {"type": "DT_FLOAT"}}}, {"name": "StatefulPartitionedCall/U-Net_1/concatenate_1/concat", "op": "ConcatV2", "input": ["StatefulPartitionedCall/U-Net_1/conv2d_transpose_1/BiasAdd", "StatefulPartitionedCall/U-Net_1/batch_normalization_7_1/batchnorm/add_1", "StatefulPartitionedCall/U-Net_1/concatenate_1/concat/axis"], "attr": {"T": {"type": "DT_FLOAT"}, "Tidx": {"type": "DT_INT32"}, "N": {"i": "2"}}}, {"name": "StatefulPartitionedCall/U-Net_1/conv2d_10_1/Relu", "op": "_FusedConv2D", "input": ["StatefulPartitionedCall/U-Net_1/concatenate_1/concat", "StatefulPartitionedCall/U-Net_1/conv2d_10_1/convolution/ReadVariableOp", "StatefulPartitionedCall/U-Net_1/conv2d_10_1/Squeeze"], "device": "/device:CPU:0", "attr": {"TArgs": {"list": {"type": ["DT_FLOAT"]}}, "strides": {"list": {"i": ["1", "1", "1", "1"]}}, "data_format": {"s": "TkhXQw=="}, "padding": {"s": "U0FNRQ=="}, "T": {"type": "DT_FLOAT"}, "filter_format": {"s": "SFdJTw=="}, "dilations": {"list": {"i": ["1", "1", "1", "1"]}}, "num_args": {"i": "1"}, "explicit_paddings": {"list": {}}, "epsilon": {"f": 0.0}, "fused_ops": {"list": {"s": ["Qmlhc0FkZA==", "UmVsdQ=="]}}, "use_cudnn_on_gpu": {"b": true}, "leakyrelu_alpha": {"f": 0.2}, "num_host_args": {"i": "0"}}}, {"name": "StatefulPartitionedCall/U-Net_1/batch_normalization_10_1/batchnorm/mul_1", "op": "Mul", "input": ["StatefulPartitionedCall/U-Net_1/conv2d_10_1/Relu", "StatefulPartitionedCall/U-Net_1/batch_normalization_10_1/batchnorm/mul"], "attr": {"T": {"type": "DT_FLOAT"}}}, {"name": "StatefulPartitionedCall/U-Net_1/batch_normalization_10_1/batchnorm/add_1", "op": "AddV2", "input": ["StatefulPartitionedCall/U-Net_1/batch_normalization_10_1/batchnorm/mul_1", "StatefulPartitionedCall/U-Net_1/batch_normalization_10_1/batchnorm/sub"], "attr": {"T": {"type": "DT_FLOAT"}}}, {"name": "StatefulPartitionedCall/U-Net_1/conv2d_11_1/Relu", "op": "_FusedConv2D", "input": ["StatefulPartitionedCall/U-Net_1/batch_normalization_10_1/batchnorm/add_1", "StatefulPartitionedCall/U-Net_1/conv2d_11_1/convolution/ReadVariableOp", "StatefulPartitionedCall/U-Net_1/conv2d_11_1/Squeeze"], "device": "/device:CPU:0", "attr": {"TArgs": {"list": {"type": ["DT_FLOAT"]}}, "fused_ops": {"list": {"s": ["Qmlhc0FkZA==", "UmVsdQ=="]}}, "data_format": {"s": "TkhXQw=="}, "padding": {"s": "U0FNRQ=="}, "T": {"type": "DT_FLOAT"}, "explicit_paddings": {"list": {}}, "dilations": {"list": {"i": ["1", "1", "1", "1"]}}, "filter_format": {"s": "SFdJTw=="}, "num_args": {"i": "1"}, "epsilon": {"f": 0.0}, "strides": {"list": {"i": ["1", "1", "1", "1"]}}, "use_cudnn_on_gpu": {"b": true}, "num_host_args": {"i": "0"}, "leakyrelu_alpha": {"f": 0.2}}}, {"name": "StatefulPartitionedCall/U-Net_1/batch_normalization_11_1/batchnorm/mul_1", "op": "Mul", "input": ["StatefulPartitionedCall/U-Net_1/conv2d_11_1/Relu", "StatefulPartitionedCall/U-Net_1/batch_normalization_11_1/batchnorm/mul"], "attr": {"T": {"type": "DT_FLOAT"}}}, {"name": "StatefulPartitionedCall/U-Net_1/batch_normalization_11_1/batchnorm/add_1", "op": "AddV2", "input": ["StatefulPartitionedCall/U-Net_1/batch_normalization_11_1/batchnorm/mul_1", "StatefulPartitionedCall/U-Net_1/batch_normalization_11_1/batchnorm/sub"], "attr": {"T": {"type": "DT_FLOAT"}}}, {"name": "StatefulPartitionedCall/U-Net_1/conv2d_transpose_1_2/Shape", "op": "Shape", "input": ["StatefulPartitionedCall/U-Net_1/batch_normalization_11_1/batchnorm/add_1"], "attr": {"out_type": {"type": "DT_INT32"}, "T": {"type": "DT_FLOAT"}}, "experimentalType": {"typeId": "TFT_PRODUCT", "args": [{"typeId": "TFT_SHAPE_TENSOR", "args": [{"typeId": "TFT_INT32"}]}]}}, {"name": "StatefulPartitionedCall/U-Net_1/conv2d_transpose_1_2/strided_slice", "op": "StridedSlice", "input": ["StatefulPartitionedCall/U-Net_1/conv2d_transpose_1_2/Shape", "StatefulPartitionedCall/U-Net_1/conv2d_transpose_1_2/strided_slice/stack", "StatefulPartitionedCall/U-Net_1/conv2d_transpose_1_2/strided_slice/stack_1", "StatefulPartitionedCall/U-Net_1/conv2d_transpose_1_2/strided_slice/stack_2"], "attr": {"begin_mask": {"i": "0"}, "Index": {"type": "DT_INT32"}, "T": {"type": "DT_INT32"}, "shrink_axis_mask": {"i": "1"}, "end_mask": {"i": "0"}, "new_axis_mask": {"i": "0"}, "ellipsis_mask": {"i": "0"}}}, {"name": "StatefulPartitionedCall/U-Net_1/conv2d_transpose_1_2/conv_transpose/input_sizes", "op": "Pack", "input": ["StatefulPartitionedCall/U-Net_1/conv2d_transpose_1_2/strided_slice", "StatefulPartitionedCall/U-Net_1/conv2d_transpose_1_2/conv_transpose/input_sizes/1", "StatefulPartitionedCall/U-Net_1/conv2d_transpose_1_2/conv_transpose/input_sizes/2", "StatefulPartitionedCall/U-Net_1/conv2d_transpose_1_2/conv_transpose/input_sizes/3"], "attr": {"T": {"type": "DT_INT32"}, "axis": {"i": "0"}, "N": {"i": "4"}}}, {"name": "StatefulPartitionedCall/U-Net_1/conv2d_transpose_1_2/conv_transpose", "op": "Conv2DBackpropInput", "input": ["StatefulPartitionedCall/U-Net_1/conv2d_transpose_1_2/conv_transpose/input_sizes", "StatefulPartitionedCall/U-Net_1/conv2d_transpose_1_2/conv_transpose/ReadVariableOp", "StatefulPartitionedCall/U-Net_1/batch_normalization_11_1/batchnorm/add_1"], "attr": {"strides": {"list": {"i": ["1", "2", "2", "1"]}}, "data_format": {"s": "TkhXQw=="}, "padding": {"s": "U0FNRQ=="}, "use_cudnn_on_gpu": {"b": true}, "explicit_paddings": {"list": {}}, "dilations": {"list": {"i": ["1", "1", "1", "1"]}}, "T": {"type": "DT_FLOAT"}}}, {"name": "StatefulPartitionedCall/U-Net_1/conv2d_transpose_1_2/BiasAdd", "op": "BiasAdd", "input": ["StatefulPartitionedCall/U-Net_1/conv2d_transpose_1_2/conv_transpose", "StatefulPartitionedCall/U-Net_1/conv2d_transpose_1_2/Squeeze"], "attr": {"data_format": {"s": "TkhXQw=="}, "T": {"type": "DT_FLOAT"}}}, {"name": "StatefulPartitionedCall/U-Net_1/concatenate_1_2/concat", "op": "ConcatV2", "input": ["StatefulPartitionedCall/U-Net_1/conv2d_transpose_1_2/BiasAdd", "StatefulPartitionedCall/U-Net_1/batch_normalization_5_1/batchnorm/add_1", "StatefulPartitionedCall/U-Net_1/concatenate_1_2/concat/axis"], "attr": {"T": {"type": "DT_FLOAT"}, "Tidx": {"type": "DT_INT32"}, "N": {"i": "2"}}}, {"name": "StatefulPartitionedCall/U-Net_1/conv2d_12_1/Relu", "op": "_FusedConv2D", "input": ["StatefulPartitionedCall/U-Net_1/concatenate_1_2/concat", "StatefulPartitionedCall/U-Net_1/conv2d_12_1/convolution/ReadVariableOp", "StatefulPartitionedCall/U-Net_1/conv2d_12_1/Squeeze"], "device": "/device:CPU:0", "attr": {"TArgs": {"list": {"type": ["DT_FLOAT"]}}, "fused_ops": {"list": {"s": ["Qmlhc0FkZA==", "UmVsdQ=="]}}, "epsilon": {"f": 0.0}, "padding": {"s": "U0FNRQ=="}, "T": {"type": "DT_FLOAT"}, "filter_format": {"s": "SFdJTw=="}, "dilations": {"list": {"i": ["1", "1", "1", "1"]}}, "explicit_paddings": {"list": {}}, "num_args": {"i": "1"}, "data_format": {"s": "TkhXQw=="}, "strides": {"list": {"i": ["1", "1", "1", "1"]}}, "use_cudnn_on_gpu": {"b": true}, "num_host_args": {"i": "0"}, "leakyrelu_alpha": {"f": 0.2}}}, {"name": "StatefulPartitionedCall/U-Net_1/batch_normalization_12_1/batchnorm/mul_1", "op": "Mul", "input": ["StatefulPartitionedCall/U-Net_1/conv2d_12_1/Relu", "StatefulPartitionedCall/U-Net_1/batch_normalization_12_1/batchnorm/mul"], "attr": {"T": {"type": "DT_FLOAT"}}}, {"name": "StatefulPartitionedCall/U-Net_1/batch_normalization_12_1/batchnorm/add_1", "op": "AddV2", "input": ["StatefulPartitionedCall/U-Net_1/batch_normalization_12_1/batchnorm/mul_1", "StatefulPartitionedCall/U-Net_1/batch_normalization_12_1/batchnorm/sub"], "attr": {"T": {"type": "DT_FLOAT"}}}, {"name": "StatefulPartitionedCall/U-Net_1/conv2d_13_1/Relu", "op": "_FusedConv2D", "input": ["StatefulPartitionedCall/U-Net_1/batch_normalization_12_1/batchnorm/add_1", "StatefulPartitionedCall/U-Net_1/conv2d_13_1/convolution/ReadVariableOp", "StatefulPartitionedCall/U-Net_1/conv2d_13_1/Squeeze"], "device": "/device:CPU:0", "attr": {"TArgs": {"list": {"type": ["DT_FLOAT"]}}, "strides": {"list": {"i": ["1", "1", "1", "1"]}}, "epsilon": {"f": 0.0}, "padding": {"s": "U0FNRQ=="}, "T": {"type": "DT_FLOAT"}, "explicit_paddings": {"list": {}}, "dilations": {"list": {"i": ["1", "1", "1", "1"]}}, "filter_format": {"s": "SFdJTw=="}, "num_args": {"i": "1"}, "data_format": {"s": "TkhXQw=="}, "fused_ops": {"list": {"s": ["Qmlhc0FkZA==", "UmVsdQ=="]}}, "use_cudnn_on_gpu": {"b": true}, "leakyrelu_alpha": {"f": 0.2}, "num_host_args": {"i": "0"}}}, {"name": "StatefulPartitionedCall/U-Net_1/batch_normalization_13_1/batchnorm/mul_1", "op": "Mul", "input": ["StatefulPartitionedCall/U-Net_1/conv2d_13_1/Relu", "StatefulPartitionedCall/U-Net_1/batch_normalization_13_1/batchnorm/mul"], "attr": {"T": {"type": "DT_FLOAT"}}}, {"name": "StatefulPartitionedCall/U-Net_1/batch_normalization_13_1/batchnorm/add_1", "op": "AddV2", "input": ["StatefulPartitionedCall/U-Net_1/batch_normalization_13_1/batchnorm/mul_1", "StatefulPartitionedCall/U-Net_1/batch_normalization_13_1/batchnorm/sub"], "attr": {"T": {"type": "DT_FLOAT"}}}, {"name": "StatefulPartitionedCall/U-Net_1/conv2d_transpose_2_1/Shape", "op": "Shape", "input": ["StatefulPartitionedCall/U-Net_1/batch_normalization_13_1/batchnorm/add_1"], "attr": {"out_type": {"type": "DT_INT32"}, "T": {"type": "DT_FLOAT"}}, "experimentalType": {"typeId": "TFT_PRODUCT", "args": [{"typeId": "TFT_SHAPE_TENSOR", "args": [{"typeId": "TFT_INT32"}]}]}}, {"name": "StatefulPartitionedCall/U-Net_1/conv2d_transpose_2_1/strided_slice", "op": "StridedSlice", "input": ["StatefulPartitionedCall/U-Net_1/conv2d_transpose_2_1/Shape", "StatefulPartitionedCall/U-Net_1/conv2d_transpose_2_1/strided_slice/stack", "StatefulPartitionedCall/U-Net_1/conv2d_transpose_2_1/strided_slice/stack_1", "StatefulPartitionedCall/U-Net_1/conv2d_transpose_2_1/strided_slice/stack_2"], "attr": {"begin_mask": {"i": "0"}, "Index": {"type": "DT_INT32"}, "ellipsis_mask": {"i": "0"}, "new_axis_mask": {"i": "0"}, "end_mask": {"i": "0"}, "shrink_axis_mask": {"i": "1"}, "T": {"type": "DT_INT32"}}}, {"name": "StatefulPartitionedCall/U-Net_1/conv2d_transpose_2_1/conv_transpose/input_sizes", "op": "Pack", "input": ["StatefulPartitionedCall/U-Net_1/conv2d_transpose_2_1/strided_slice", "StatefulPartitionedCall/U-Net_1/conv2d_transpose_2_1/conv_transpose/input_sizes/1", "StatefulPartitionedCall/U-Net_1/conv2d_transpose_2_1/conv_transpose/input_sizes/2", "StatefulPartitionedCall/U-Net_1/conv2d_transpose_2_1/conv_transpose/input_sizes/3"], "attr": {"T": {"type": "DT_INT32"}, "axis": {"i": "0"}, "N": {"i": "4"}}}, {"name": "StatefulPartitionedCall/U-Net_1/conv2d_transpose_2_1/conv_transpose", "op": "Conv2DBackpropInput", "input": ["StatefulPartitionedCall/U-Net_1/conv2d_transpose_2_1/conv_transpose/input_sizes", "StatefulPartitionedCall/U-Net_1/conv2d_transpose_2_1/conv_transpose/ReadVariableOp", "StatefulPartitionedCall/U-Net_1/batch_normalization_13_1/batchnorm/add_1"], "attr": {"strides": {"list": {"i": ["1", "2", "2", "1"]}}, "data_format": {"s": "TkhXQw=="}, "T": {"type": "DT_FLOAT"}, "use_cudnn_on_gpu": {"b": true}, "explicit_paddings": {"list": {}}, "dilations": {"list": {"i": ["1", "1", "1", "1"]}}, "padding": {"s": "U0FNRQ=="}}}, {"name": "StatefulPartitionedCall/U-Net_1/conv2d_transpose_2_1/BiasAdd", "op": "BiasAdd", "input": ["StatefulPartitionedCall/U-Net_1/conv2d_transpose_2_1/conv_transpose", "StatefulPartitionedCall/U-Net_1/conv2d_transpose_2_1/Squeeze"], "attr": {"data_format": {"s": "TkhXQw=="}, "T": {"type": "DT_FLOAT"}}}, {"name": "StatefulPartitionedCall/U-Net_1/concatenate_2_1/concat", "op": "ConcatV2", "input": ["StatefulPartitionedCall/U-Net_1/conv2d_transpose_2_1/BiasAdd", "StatefulPartitionedCall/U-Net_1/batch_normalization_3_1/batchnorm/add_1", "StatefulPartitionedCall/U-Net_1/concatenate_2_1/concat/axis"], "attr": {"T": {"type": "DT_FLOAT"}, "Tidx": {"type": "DT_INT32"}, "N": {"i": "2"}}}, {"name": "StatefulPartitionedCall/U-Net_1/conv2d_14_1/Relu", "op": "_FusedConv2D", "input": ["StatefulPartitionedCall/U-Net_1/concatenate_2_1/concat", "StatefulPartitionedCall/U-Net_1/conv2d_14_1/convolution/ReadVariableOp", "StatefulPartitionedCall/U-Net_1/conv2d_14_1/Squeeze"], "device": "/device:CPU:0", "attr": {"TArgs": {"list": {"type": ["DT_FLOAT"]}}, "strides": {"list": {"i": ["1", "1", "1", "1"]}}, "epsilon": {"f": 0.0}, "padding": {"s": "U0FNRQ=="}, "T": {"type": "DT_FLOAT"}, "num_args": {"i": "1"}, "dilations": {"list": {"i": ["1", "1", "1", "1"]}}, "explicit_paddings": {"list": {}}, "filter_format": {"s": "SFdJTw=="}, "data_format": {"s": "TkhXQw=="}, "fused_ops": {"list": {"s": ["Qmlhc0FkZA==", "UmVsdQ=="]}}, "use_cudnn_on_gpu": {"b": true}, "num_host_args": {"i": "0"}, "leakyrelu_alpha": {"f": 0.2}}}, {"name": "StatefulPartitionedCall/U-Net_1/batch_normalization_14_1/batchnorm/mul_1", "op": "Mul", "input": ["StatefulPartitionedCall/U-Net_1/conv2d_14_1/Relu", "StatefulPartitionedCall/U-Net_1/batch_normalization_14_1/batchnorm/mul"], "attr": {"T": {"type": "DT_FLOAT"}}}, {"name": "StatefulPartitionedCall/U-Net_1/batch_normalization_14_1/batchnorm/add_1", "op": "AddV2", "input": ["StatefulPartitionedCall/U-Net_1/batch_normalization_14_1/batchnorm/mul_1", "StatefulPartitionedCall/U-Net_1/batch_normalization_14_1/batchnorm/sub"], "attr": {"T": {"type": "DT_FLOAT"}}}, {"name": "StatefulPartitionedCall/U-Net_1/conv2d_15_1/Relu", "op": "_FusedConv2D", "input": ["StatefulPartitionedCall/U-Net_1/batch_normalization_14_1/batchnorm/add_1", "StatefulPartitionedCall/U-Net_1/conv2d_15_1/convolution/ReadVariableOp", "StatefulPartitionedCall/U-Net_1/conv2d_15_1/Squeeze"], "device": "/device:CPU:0", "attr": {"TArgs": {"list": {"type": ["DT_FLOAT"]}}, "fused_ops": {"list": {"s": ["Qmlhc0FkZA==", "UmVsdQ=="]}}, "data_format": {"s": "TkhXQw=="}, "padding": {"s": "U0FNRQ=="}, "T": {"type": "DT_FLOAT"}, "num_args": {"i": "1"}, "dilations": {"list": {"i": ["1", "1", "1", "1"]}}, "filter_format": {"s": "SFdJTw=="}, "explicit_paddings": {"list": {}}, "epsilon": {"f": 0.0}, "strides": {"list": {"i": ["1", "1", "1", "1"]}}, "use_cudnn_on_gpu": {"b": true}, "num_host_args": {"i": "0"}, "leakyrelu_alpha": {"f": 0.2}}}, {"name": "StatefulPartitionedCall/U-Net_1/batch_normalization_15_1/batchnorm/mul_1", "op": "Mul", "input": ["StatefulPartitionedCall/U-Net_1/conv2d_15_1/Relu", "StatefulPartitionedCall/U-Net_1/batch_normalization_15_1/batchnorm/mul"], "attr": {"T": {"type": "DT_FLOAT"}}}, {"name": "StatefulPartitionedCall/U-Net_1/batch_normalization_15_1/batchnorm/add_1", "op": "AddV2", "input": ["StatefulPartitionedCall/U-Net_1/batch_normalization_15_1/batchnorm/mul_1", "StatefulPartitionedCall/U-Net_1/batch_normalization_15_1/batchnorm/sub"], "attr": {"T": {"type": "DT_FLOAT"}}}, {"name": "StatefulPartitionedCall/U-Net_1/conv2d_transpose_3_1/Shape", "op": "Shape", "input": ["StatefulPartitionedCall/U-Net_1/batch_normalization_15_1/batchnorm/add_1"], "attr": {"out_type": {"type": "DT_INT32"}, "T": {"type": "DT_FLOAT"}}, "experimentalType": {"typeId": "TFT_PRODUCT", "args": [{"typeId": "TFT_SHAPE_TENSOR", "args": [{"typeId": "TFT_INT32"}]}]}}, {"name": "StatefulPartitionedCall/U-Net_1/conv2d_transpose_3_1/strided_slice", "op": "StridedSlice", "input": ["StatefulPartitionedCall/U-Net_1/conv2d_transpose_3_1/Shape", "StatefulPartitionedCall/U-Net_1/conv2d_transpose_3_1/strided_slice/stack", "StatefulPartitionedCall/U-Net_1/conv2d_transpose_3_1/strided_slice/stack_1", "StatefulPartitionedCall/U-Net_1/conv2d_transpose_3_1/strided_slice/stack_2"], "attr": {"begin_mask": {"i": "0"}, "Index": {"type": "DT_INT32"}, "T": {"type": "DT_INT32"}, "new_axis_mask": {"i": "0"}, "end_mask": {"i": "0"}, "shrink_axis_mask": {"i": "1"}, "ellipsis_mask": {"i": "0"}}}, {"name": "StatefulPartitionedCall/U-Net_1/conv2d_transpose_3_1/conv_transpose/input_sizes", "op": "Pack", "input": ["StatefulPartitionedCall/U-Net_1/conv2d_transpose_3_1/strided_slice", "StatefulPartitionedCall/U-Net_1/conv2d_transpose_3_1/conv_transpose/input_sizes/1", "StatefulPartitionedCall/U-Net_1/conv2d_transpose_3_1/conv_transpose/input_sizes/2", "StatefulPartitionedCall/U-Net_1/conv2d_transpose_3_1/conv_transpose/input_sizes/3"], "attr": {"T": {"type": "DT_INT32"}, "axis": {"i": "0"}, "N": {"i": "4"}}}, {"name": "StatefulPartitionedCall/U-Net_1/conv2d_transpose_3_1/conv_transpose", "op": "Conv2DBackpropInput", "input": ["StatefulPartitionedCall/U-Net_1/conv2d_transpose_3_1/conv_transpose/input_sizes", "StatefulPartitionedCall/U-Net_1/conv2d_transpose_3_1/conv_transpose/ReadVariableOp", "StatefulPartitionedCall/U-Net_1/batch_normalization_15_1/batchnorm/add_1"], "attr": {"strides": {"list": {"i": ["1", "2", "2", "1"]}}, "data_format": {"s": "TkhXQw=="}, "T": {"type": "DT_FLOAT"}, "use_cudnn_on_gpu": {"b": true}, "explicit_paddings": {"list": {}}, "dilations": {"list": {"i": ["1", "1", "1", "1"]}}, "padding": {"s": "U0FNRQ=="}}}, {"name": "StatefulPartitionedCall/U-Net_1/conv2d_transpose_3_1/BiasAdd", "op": "BiasAdd", "input": ["StatefulPartitionedCall/U-Net_1/conv2d_transpose_3_1/conv_transpose", "StatefulPartitionedCall/U-Net_1/conv2d_transpose_3_1/Squeeze"], "attr": {"data_format": {"s": "TkhXQw=="}, "T": {"type": "DT_FLOAT"}}}, {"name": "StatefulPartitionedCall/U-Net_1/concatenate_3_1/concat", "op": "ConcatV2", "input": ["StatefulPartitionedCall/U-Net_1/conv2d_transpose_3_1/BiasAdd", "StatefulPartitionedCall/U-Net_1/batch_normalization_1_2/batchnorm/add_1", "StatefulPartitionedCall/U-Net_1/concatenate_3_1/concat/axis"], "attr": {"T": {"type": "DT_FLOAT"}, "Tidx": {"type": "DT_INT32"}, "N": {"i": "2"}}}, {"name": "StatefulPartitionedCall/U-Net_1/conv2d_16_1/Relu", "op": "_FusedConv2D", "input": ["StatefulPartitionedCall/U-Net_1/concatenate_3_1/concat", "StatefulPartitionedCall/U-Net_1/conv2d_16_1/convolution/ReadVariableOp", "StatefulPartitionedCall/U-Net_1/conv2d_16_1/Squeeze"], "device": "/device:CPU:0", "attr": {"TArgs": {"list": {"type": ["DT_FLOAT"]}}, "strides": {"list": {"i": ["1", "1", "1", "1"]}}, "epsilon": {"f": 0.0}, "padding": {"s": "U0FNRQ=="}, "T": {"type": "DT_FLOAT"}, "filter_format": {"s": "SFdJTw=="}, "dilations": {"list": {"i": ["1", "1", "1", "1"]}}, "explicit_paddings": {"list": {}}, "num_args": {"i": "1"}, "data_format": {"s": "TkhXQw=="}, "fused_ops": {"list": {"s": ["Qmlhc0FkZA==", "UmVsdQ=="]}}, "use_cudnn_on_gpu": {"b": true}, "leakyrelu_alpha": {"f": 0.2}, "num_host_args": {"i": "0"}}}, {"name": "StatefulPartitionedCall/U-Net_1/batch_normalization_16_1/batchnorm/mul_1", "op": "Mul", "input": ["StatefulPartitionedCall/U-Net_1/conv2d_16_1/Relu", "StatefulPartitionedCall/U-Net_1/batch_normalization_16_1/batchnorm/mul"], "attr": {"T": {"type": "DT_FLOAT"}}}, {"name": "StatefulPartitionedCall/U-Net_1/batch_normalization_16_1/batchnorm/add_1", "op": "AddV2", "input": ["StatefulPartitionedCall/U-Net_1/batch_normalization_16_1/batchnorm/mul_1", "StatefulPartitionedCall/U-Net_1/batch_normalization_16_1/batchnorm/sub"], "attr": {"T": {"type": "DT_FLOAT"}}}, {"name": "StatefulPartitionedCall/U-Net_1/conv2d_17_1/Relu", "op": "_FusedConv2D", "input": ["StatefulPartitionedCall/U-Net_1/batch_normalization_16_1/batchnorm/add_1", "StatefulPartitionedCall/U-Net_1/conv2d_17_1/convolution/ReadVariableOp", "StatefulPartitionedCall/U-Net_1/conv2d_17_1/Squeeze"], "device": "/device:CPU:0", "attr": {"TArgs": {"list": {"type": ["DT_FLOAT"]}}, "fused_ops": {"list": {"s": ["Qmlhc0FkZA==", "UmVsdQ=="]}}, "data_format": {"s": "TkhXQw=="}, "padding": {"s": "U0FNRQ=="}, "T": {"type": "DT_FLOAT"}, "explicit_paddings": {"list": {}}, "dilations": {"list": {"i": ["1", "1", "1", "1"]}}, "num_args": {"i": "1"}, "filter_format": {"s": "SFdJTw=="}, "epsilon": {"f": 0.0}, "strides": {"list": {"i": ["1", "1", "1", "1"]}}, "use_cudnn_on_gpu": {"b": true}, "leakyrelu_alpha": {"f": 0.2}, "num_host_args": {"i": "0"}}}, {"name": "StatefulPartitionedCall/U-Net_1/batch_normalization_17_1/batchnorm/mul_1", "op": "Mul", "input": ["StatefulPartitionedCall/U-Net_1/conv2d_17_1/Relu", "StatefulPartitionedCall/U-Net_1/batch_normalization_17_1/batchnorm/mul"], "attr": {"T": {"type": "DT_FLOAT"}}}, {"name": "StatefulPartitionedCall/U-Net_1/batch_normalization_17_1/batchnorm/add_1", "op": "AddV2", "input": ["StatefulPartitionedCall/U-Net_1/batch_normalization_17_1/batchnorm/mul_1", "StatefulPartitionedCall/U-Net_1/batch_normalization_17_1/batchnorm/sub"], "attr": {"T": {"type": "DT_FLOAT"}}}, {"name": "StatefulPartitionedCall/U-Net_1/conv2d_18_1/Add", "op": "_FusedConv2D", "input": ["StatefulPartitionedCall/U-Net_1/batch_normalization_17_1/batchnorm/add_1", "StatefulPartitionedCall/U-Net_1/conv2d_18_1/convolution/ReadVariableOp", "StatefulPartitionedCall/U-Net_1/conv2d_18_1/Reshape"], "device": "/device:CPU:0", "attr": {"TArgs": {"list": {"type": ["DT_FLOAT"]}}, "strides": {"list": {"i": ["1", "1", "1", "1"]}}, "data_format": {"s": "TkhXQw=="}, "padding": {"s": "U0FNRQ=="}, "T": {"type": "DT_FLOAT"}, "filter_format": {"s": "SFdJTw=="}, "dilations": {"list": {"i": ["1", "1", "1", "1"]}}, "num_args": {"i": "1"}, "explicit_paddings": {"list": {}}, "epsilon": {"f": 0.0}, "fused_ops": {"list": {"s": ["Qmlhc0FkZA=="]}}, "use_cudnn_on_gpu": {"b": true}, "leakyrelu_alpha": {"f": 0.2}, "num_host_args": {"i": "0"}}}, {"name": "StatefulPartitionedCall/U-Net_1/conv2d_18_1/Sigmoid", "op": "Sigmoid", "input": ["StatefulPartitionedCall/U-Net_1/conv2d_18_1/Add"], "attr": {"T": {"type": "DT_FLOAT"}}}, {"name": "Identity", "op": "Identity", "input": ["StatefulPartitionedCall/U-Net_1/conv2d_18_1/Sigmoid"], "attr": {"T": {"type": "DT_FLOAT"}}}], "library": {}, "versions": {"producer": 2129}}, "weightsManifest": [{"paths": ["group1-shard1of8.bin", "group1-shard2of8.bin", "group1-shard3of8.bin", "group1-shard4of8.bin", "group1-shard5of8.bin", "group1-shard6of8.bin", "group1-shard7of8.bin", "group1-shard8of8.bin"], "weights": [{"name": "StatefulPartitionedCall/U-Net_1/conv2d_transpose_3_1/strided_slice/stack", "shape": [1], "dtype": "int32"}, {"name": "StatefulPartitionedCall/U-Net_1/conv2d_transpose_3_1/strided_slice/stack_1", "shape": [1], "dtype": "int32"}, {"name": "StatefulPartitionedCall/U-Net_1/conv2d_transpose_3_1/strided_slice/stack_2", "shape": [1], "dtype": "int32"}, {"name": "StatefulPartitionedCall/U-Net_1/conv2d_transpose_3_1/conv_transpose/input_sizes/1", "shape": [], "dtype": "int32"}, {"name": "StatefulPartitionedCall/U-Net_1/conv2d_transpose_3_1/conv_transpose/input_sizes/2", "shape": [], "dtype": "int32"}, {"name": "StatefulPartitionedCall/U-Net_1/conv2d_transpose_3_1/conv_transpose/input_sizes/3", "shape": [], "dtype": "int32"}, {"name": "StatefulPartitionedCall/U-Net_1/conv2d_transpose_3_1/conv_transpose/ReadVariableOp", "shape": [2, 2, 32, 64], "dtype": "float32"}, {"name": "StatefulPartitionedCall/U-Net_1/conv2d_transpose_2_1/strided_slice/stack", "shape": [1], "dtype": "int32"}, {"name": "StatefulPartitionedCall/U-Net_1/conv2d_transpose_2_1/strided_slice/stack_1", "shape": [1], "dtype": "int32"}, {"name": "StatefulPartitionedCall/U-Net_1/conv2d_transpose_2_1/strided_slice/stack_2", "shape": [1], "dtype": "int32"}, {"name": "StatefulPartitionedCall/U-Net_1/conv2d_transpose_2_1/conv_transpose/input_sizes/1", "shape": [], "dtype": "int32"}, {"name": "StatefulPartitionedCall/U-Net_1/conv2d_transpose_2_1/conv_transpose/input_sizes/2", "shape": [], "dtype": "int32"}, {"name": "StatefulPartitionedCall/U-Net_1/conv2d_transpose_2_1/conv_transpose/input_sizes/3", "shape": [], "dtype": "int32"}, {"name": "StatefulPartitionedCall/U-Net_1/conv2d_transpose_2_1/conv_transpose/ReadVariableOp", "shape": [2, 2, 64, 128], "dtype": "float32"}, {"name": "StatefulPartitionedCall/U-Net_1/conv2d_transpose_1_2/strided_slice/stack", "shape": [1], "dtype": "int32"}, {"name": "StatefulPartitionedCall/U-Net_1/conv2d_transpose_1_2/strided_slice/stack_1", "shape": [1], "dtype": "int32"}, {"name": "StatefulPartitionedCall/U-Net_1/conv2d_transpose_1_2/strided_slice/stack_2", "shape": [1], "dtype": "int32"}, {"name": "StatefulPartitionedCall/U-Net_1/conv2d_transpose_1_2/conv_transpose/input_sizes/1", "shape": [], "dtype": "int32"}, {"name": "StatefulPartitionedCall/U-Net_1/conv2d_transpose_1_2/conv_transpose/input_sizes/2", "shape": [], "dtype": "int32"}, {"name": "StatefulPartitionedCall/U-Net_1/conv2d_transpose_1_2/conv_transpose/input_sizes/3", "shape": [], "dtype": "int32"}, {"name": "StatefulPartitionedCall/U-Net_1/conv2d_transpose_1_2/conv_transpose/ReadVariableOp", "shape": [2, 2, 128, 256], "dtype": "float32"}, {"name": "StatefulPartitionedCall/U-Net_1/conv2d_transpose_1/strided_slice/stack", "shape": [1], "dtype": "int32"}, {"name": "StatefulPartitionedCall/U-Net_1/conv2d_transpose_1/strided_slice/stack_1", "shape": [1], "dtype": "int32"}, {"name": "StatefulPartitionedCall/U-Net_1/conv2d_transpose_1/strided_slice/stack_2", "shape": [1], "dtype": "int32"}, {"name": "StatefulPartitionedCall/U-Net_1/conv2d_transpose_1/conv_transpose/input_sizes/1", "shape": [], "dtype": "int32"}, {"name": "StatefulPartitionedCall/U-Net_1/conv2d_transpose_1/conv_transpose/input_sizes/2", "shape": [], "dtype": "int32"}, {"name": "StatefulPartitionedCall/U-Net_1/conv2d_transpose_1/conv_transpose/input_sizes/3", "shape": [], "dtype": "int32"}, {"name": "StatefulPartitionedCall/U-Net_1/conv2d_transpose_1/conv_transpose/ReadVariableOp", "shape": [2, 2, 256, 512], "dtype": "float32"}, {"name": "StatefulPartitionedCall/U-Net_1/conv2d_8_1/convolution/ReadVariableOp", "shape": [3, 3, 256, 512], "dtype": "float32"}, {"name": "StatefulPartitionedCall/U-Net_1/conv2d_8_1/Squeeze", "shape": [512], "dtype": "float32"}, {"name": "StatefulPartitionedCall/U-Net_1/batch_normalization_8_1/batchnorm/mul", "shape": [512], "dtype": "float32"}, {"name": "StatefulPartitionedCall/U-Net_1/batch_normalization_8_1/batchnorm/sub", "shape": [512], "dtype": "float32"}, {"name": "StatefulPartitionedCall/U-Net_1/conv2d_9_1/convolution/ReadVariableOp", "shape": [3, 3, 512, 512], "dtype": "float32"}, {"name": "StatefulPartitionedCall/U-Net_1/conv2d_9_1/Squeeze", "shape": [512], "dtype": "float32"}, {"name": "StatefulPartitionedCall/U-Net_1/batch_normalization_9_1/batchnorm/mul", "shape": [512], "dtype": "float32"}, {"name": "StatefulPartitionedCall/U-Net_1/batch_normalization_9_1/batchnorm/sub", "shape": [512], "dtype": "float32"}, {"name": "StatefulPartitionedCall/U-Net_1/conv2d_transpose_1/Squeeze", "shape": [256], "dtype": "float32"}, {"name": "StatefulPartitionedCall/U-Net_1/conv2d_6_1/convolution/ReadVariableOp", "shape": [3, 3, 128, 256], "dtype": "float32"}, {"name": "StatefulPartitionedCall/U-Net_1/conv2d_6_1/Squeeze", "shape": [256], "dtype": "float32"}, {"name": "StatefulPartitionedCall/U-Net_1/batch_normalization_6_1/batchnorm/mul", "shape": [256], "dtype": "float32"}, {"name": "StatefulPartitionedCall/U-Net_1/batch_normalization_6_1/batchnorm/sub", "shape": [256], "dtype": "float32"}, {"name": "StatefulPartitionedCall/U-Net_1/conv2d_7_1/convolution/ReadVariableOp", "shape": [3, 3, 256, 256], "dtype": "float32"}, {"name": "StatefulPartitionedCall/U-Net_1/conv2d_7_1/Squeeze", "shape": [256], "dtype": "float32"}, {"name": "StatefulPartitionedCall/U-Net_1/batch_normalization_7_1/batchnorm/mul", "shape": [256], "dtype": "float32"}, {"name": "StatefulPartitionedCall/U-Net_1/batch_normalization_7_1/batchnorm/sub", "shape": [256], "dtype": "float32"}, {"name": "StatefulPartitionedCall/U-Net_1/concatenate_1/concat/axis", "shape": [], "dtype": "int32"}, {"name": "StatefulPartitionedCall/U-Net_1/conv2d_10_1/convolution/ReadVariableOp", "shape": [3, 3, 512, 256], "dtype": "float32"}, {"name": "StatefulPartitionedCall/U-Net_1/conv2d_10_1/Squeeze", "shape": [256], "dtype": "float32"}, {"name": "StatefulPartitionedCall/U-Net_1/batch_normalization_10_1/batchnorm/mul", "shape": [256], "dtype": "float32"}, {"name": "StatefulPartitionedCall/U-Net_1/batch_normalization_10_1/batchnorm/sub", "shape": [256], "dtype": "float32"}, {"name": "StatefulPartitionedCall/U-Net_1/conv2d_11_1/convolution/ReadVariableOp", "shape": [3, 3, 256, 256], "dtype": "float32"}, {"name": "StatefulPartitionedCall/U-Net_1/conv2d_11_1/Squeeze", "shape": [256], "dtype": "float32"}, {"name": "StatefulPartitionedCall/U-Net_1/batch_normalization_11_1/batchnorm/mul", "shape": [256], "dtype": "float32"}, {"name": "StatefulPartitionedCall/U-Net_1/batch_normalization_11_1/batchnorm/sub", "shape": [256], "dtype": "float32"}, {"name": "StatefulPartitionedCall/U-Net_1/conv2d_transpose_1_2/Squeeze", "shape": [128], "dtype": "float32"}, {"name": "StatefulPartitionedCall/U-Net_1/conv2d_4_1/convolution/ReadVariableOp", "shape": [3, 3, 64, 128], "dtype": "float32"}, {"name": "StatefulPartitionedCall/U-Net_1/conv2d_4_1/Squeeze", "shape": [128], "dtype": "float32"}, {"name": "StatefulPartitionedCall/U-Net_1/batch_normalization_4_1/batchnorm/mul", "shape": [128], "dtype": "float32"}, {"name": "StatefulPartitionedCall/U-Net_1/batch_normalization_4_1/batchnorm/sub", "shape": [128], "dtype": "float32"}, {"name": "StatefulPartitionedCall/U-Net_1/conv2d_5_1/convolution/ReadVariableOp", "shape": [3, 3, 128, 128], "dtype": "float32"}, {"name": "StatefulPartitionedCall/U-Net_1/conv2d_5_1/Squeeze", "shape": [128], "dtype": "float32"}, {"name": "StatefulPartitionedCall/U-Net_1/batch_normalization_5_1/batchnorm/mul", "shape": [128], "dtype": "float32"}, {"name": "StatefulPartitionedCall/U-Net_1/batch_normalization_5_1/batchnorm/sub", "shape": [128], "dtype": "float32"}, {"name": "StatefulPartitionedCall/U-Net_1/concatenate_1_2/concat/axis", "shape": [], "dtype": "int32"}, {"name": "StatefulPartitionedCall/U-Net_1/conv2d_12_1/convolution/ReadVariableOp", "shape": [3, 3, 256, 128], "dtype": "float32"}, {"name": "StatefulPartitionedCall/U-Net_1/conv2d_12_1/Squeeze", "shape": [128], "dtype": "float32"}, {"name": "StatefulPartitionedCall/U-Net_1/batch_normalization_12_1/batchnorm/mul", "shape": [128], "dtype": "float32"}, {"name": "StatefulPartitionedCall/U-Net_1/batch_normalization_12_1/batchnorm/sub", "shape": [128], "dtype": "float32"}, {"name": "StatefulPartitionedCall/U-Net_1/conv2d_13_1/convolution/ReadVariableOp", "shape": [3, 3, 128, 128], "dtype": "float32"}, {"name": "StatefulPartitionedCall/U-Net_1/conv2d_13_1/Squeeze", "shape": [128], "dtype": "float32"}, {"name": "StatefulPartitionedCall/U-Net_1/batch_normalization_13_1/batchnorm/mul", "shape": [128], "dtype": "float32"}, {"name": "StatefulPartitionedCall/U-Net_1/batch_normalization_13_1/batchnorm/sub", "shape": [128], "dtype": "float32"}, {"name": "StatefulPartitionedCall/U-Net_1/conv2d_transpose_2_1/Squeeze", "shape": [64], "dtype": "float32"}, {"name": "StatefulPartitionedCall/U-Net_1/conv2d_2_1/convolution/ReadVariableOp", "shape": [3, 3, 32, 64], "dtype": "float32"}, {"name": "StatefulPartitionedCall/U-Net_1/conv2d_2_1/Squeeze", "shape": [64], "dtype": "float32"}, {"name": "StatefulPartitionedCall/U-Net_1/batch_normalization_2_1/batchnorm/mul", "shape": [64], "dtype": "float32"}, {"name": "StatefulPartitionedCall/U-Net_1/batch_normalization_2_1/batchnorm/sub", "shape": [64], "dtype": "float32"}, {"name": "StatefulPartitionedCall/U-Net_1/conv2d_3_1/convolution/ReadVariableOp", "shape": [3, 3, 64, 64], "dtype": "float32"}, {"name": "StatefulPartitionedCall/U-Net_1/conv2d_3_1/Squeeze", "shape": [64], "dtype": "float32"}, {"name": "StatefulPartitionedCall/U-Net_1/batch_normalization_3_1/batchnorm/mul", "shape": [64], "dtype": "float32"}, {"name": "StatefulPartitionedCall/U-Net_1/batch_normalization_3_1/batchnorm/sub", "shape": [64], "dtype": "float32"}, {"name": "StatefulPartitionedCall/U-Net_1/concatenate_2_1/concat/axis", "shape": [], "dtype": "int32"}, {"name": "StatefulPartitionedCall/U-Net_1/conv2d_14_1/convolution/ReadVariableOp", "shape": [3, 3, 128, 64], "dtype": "float32"}, {"name": "StatefulPartitionedCall/U-Net_1/conv2d_14_1/Squeeze", "shape": [64], "dtype": "float32"}, {"name": "StatefulPartitionedCall/U-Net_1/batch_normalization_14_1/batchnorm/mul", "shape": [64], "dtype": "float32"}, {"name": "StatefulPartitionedCall/U-Net_1/batch_normalization_14_1/batchnorm/sub", "shape": [64], "dtype": "float32"}, {"name": "StatefulPartitionedCall/U-Net_1/conv2d_15_1/convolution/ReadVariableOp", "shape": [3, 3, 64, 64], "dtype": "float32"}, {"name": "StatefulPartitionedCall/U-Net_1/conv2d_15_1/Squeeze", "shape": [64], "dtype": "float32"}, {"name": "StatefulPartitionedCall/U-Net_1/batch_normalization_15_1/batchnorm/mul", "shape": [64], "dtype": "float32"}, {"name": "StatefulPartitionedCall/U-Net_1/batch_normalization_15_1/batchnorm/sub", "shape": [64], "dtype": "float32"}, {"name": "StatefulPartitionedCall/U-Net_1/conv2d_transpose_3_1/Squeeze", "shape": [32], "dtype": "float32"}, {"name": "StatefulPartitionedCall/U-Net_1/conv2d_1/convolution/ReadVariableOp", "shape": [3, 3, 3, 32], "dtype": "float32"}, {"name": "StatefulPartitionedCall/U-Net_1/conv2d_1/Squeeze", "shape": [32], "dtype": "float32"}, {"name": "StatefulPartitionedCall/U-Net_1/batch_normalization_1/batchnorm/mul", "shape": [32], "dtype": "float32"}, {"name": "StatefulPartitionedCall/U-Net_1/batch_normalization_1/batchnorm/sub", "shape": [32], "dtype": "float32"}, {"name": "StatefulPartitionedCall/U-Net_1/conv2d_1_2/convolution/ReadVariableOp", "shape": [3, 3, 32, 32], "dtype": "float32"}, {"name": "StatefulPartitionedCall/U-Net_1/conv2d_1_2/Squeeze", "shape": [32], "dtype": "float32"}, {"name": "StatefulPartitionedCall/U-Net_1/batch_normalization_1_2/batchnorm/mul", "shape": [32], "dtype": "float32"}, {"name": "StatefulPartitionedCall/U-Net_1/batch_normalization_1_2/batchnorm/sub", "shape": [32], "dtype": "float32"}, {"name": "StatefulPartitionedCall/U-Net_1/concatenate_3_1/concat/axis", "shape": [], "dtype": "int32"}, {"name": "StatefulPartitionedCall/U-Net_1/conv2d_16_1/convolution/ReadVariableOp", "shape": [3, 3, 64, 32], "dtype": "float32"}, {"name": "StatefulPartitionedCall/U-Net_1/conv2d_16_1/Squeeze", "shape": [32], "dtype": "float32"}, {"name": "StatefulPartitionedCall/U-Net_1/batch_normalization_16_1/batchnorm/mul", "shape": [32], "dtype": "float32"}, {"name": "StatefulPartitionedCall/U-Net_1/batch_normalization_16_1/batchnorm/sub", "shape": [32], "dtype": "float32"}, {"name": "StatefulPartitionedCall/U-Net_1/conv2d_17_1/convolution/ReadVariableOp", "shape": [3, 3, 32, 32], "dtype": "float32"}, {"name": "StatefulPartitionedCall/U-Net_1/conv2d_17_1/Squeeze", "shape": [32], "dtype": "float32"}, {"name": "StatefulPartitionedCall/U-Net_1/batch_normalization_17_1/batchnorm/mul", "shape": [32], "dtype": "float32"}, {"name": "StatefulPartitionedCall/U-Net_1/batch_normalization_17_1/batchnorm/sub", "shape": [32], "dtype": "float32"}, {"name": "StatefulPartitionedCall/U-Net_1/conv2d_18_1/convolution/ReadVariableOp", "shape": [1, 1, 32, 1], "dtype": "float32"}, {"name": "StatefulPartitionedCall/U-Net_1/conv2d_18_1/Reshape", "shape": [1, 1, 1, 1], "dtype": "float32"}]}]}